<?xml version="1.0"?>
<net name="efficientdet-d7_frozen" version="11">
	<layers>
		<layer id="0" name="image_files" type="Parameter" version="opset1">
			<data shape="1,1536,1536,3" element_type="f32" />
			<rt_info>
				<attribute name="old_api_map_order" version="0" value="0, 2, 3, 1" />
			</rt_info>
			<output>
				<port id="0" precision="FP32" names="image_files,image_files:0">
					<dim>1</dim>
					<dim>1536</dim>
					<dim>1536</dim>
					<dim>3</dim>
				</port>
			</output>
		</layer>
		<layer id="1" name="image_files/Transpose([0 3 1 2])/value105137150634" type="Const" version="opset1">
			<data element_type="i64" shape="4" offset="0" size="32" />
			<output>
				<port id="0" precision="I64">
					<dim>4</dim>
				</port>
			</output>
		</layer>
		<layer id="2" name="image_files/Transpose([0 3 1 2])" type="Transpose" version="opset1">
			<input>
				<port id="0" precision="FP32">
					<dim>1</dim>
					<dim>1536</dim>
					<dim>1536</dim>
					<dim>3</dim>
				</port>
				<port id="1" precision="I64">
					<dim>4</dim>
				</port>
			</input>
			<output>
				<port id="2" precision="FP32" names="Cast_1:0">
					<dim>1</dim>
					<dim>3</dim>
					<dim>1536</dim>
					<dim>1536</dim>
				</port>
			</output>
		</layer>
		<layer id="3" name="data_mul_79008" type="Const" version="opset1">
			<data element_type="f32" shape="1, 3, 1, 1" offset="32" size="12" />
			<output>
				<port id="0" precision="FP32">
					<dim>1</dim>
					<dim>3</dim>
					<dim>1</dim>
					<dim>1</dim>
				</port>
			</output>
		</layer>
		<layer id="4" name="truediv/Fused_Mul_" type="Multiply" version="opset1">
			<data auto_broadcast="numpy" />
			<input>
				<port id="0" precision="FP32">
					<dim>1</dim>
					<dim>3</dim>
					<dim>1536</dim>
					<dim>1536</dim>
				</port>
				<port id="1" precision="FP32">
					<dim>1</dim>
					<dim>3</dim>
					<dim>1</dim>
					<dim>1</dim>
				</port>
			</input>
			<output>
				<port id="2" precision="FP32">
					<dim>1</dim>
					<dim>3</dim>
					<dim>1536</dim>
					<dim>1536</dim>
				</port>
			</output>
		</layer>
		<layer id="5" name="data_add_79010" type="Const" version="opset1">
			<data element_type="f32" shape="1, 3, 1, 1" offset="44" size="12" />
			<output>
				<port id="0" precision="FP32">
					<dim>1</dim>
					<dim>3</dim>
					<dim>1</dim>
					<dim>1</dim>
				</port>
			</output>
		</layer>
		<layer id="6" name="sub_1/Fused_Add_" type="Add" version="opset1">
			<data auto_broadcast="numpy" />
			<input>
				<port id="0" precision="FP32">
					<dim>1</dim>
					<dim>3</dim>
					<dim>1536</dim>
					<dim>1536</dim>
				</port>
				<port id="1" precision="FP32">
					<dim>1</dim>
					<dim>3</dim>
					<dim>1</dim>
					<dim>1</dim>
				</port>
			</input>
			<output>
				<port id="2" precision="FP32" names="stack:0">
					<dim>1</dim>
					<dim>3</dim>
					<dim>1536</dim>
					<dim>1536</dim>
				</port>
			</output>
		</layer>
		<layer id="7" name="efficientnet-b6/stem/tpu_batch_normalization/FusedBatchNormV3/mean/Fused_Mul__copy" type="Const" version="opset1">
			<data element_type="f32" shape="56, 3, 3, 3" offset="56" size="6048" />
			<output>
				<port id="0" precision="FP32" names="efficientnet-b6/stem/conv2d/Conv2D/ReadVariableOp:0">
					<dim>56</dim>
					<dim>3</dim>
					<dim>3</dim>
					<dim>3</dim>
				</port>
			</output>
		</layer>
		<layer id="8" name="efficientnet-b6/stem/conv2d/Conv2D" type="Convolution" version="opset1">
			<data strides="2, 2" dilations="1, 1" pads_begin="0, 0" pads_end="0, 0" auto_pad="same_upper" />
			<input>
				<port id="0" precision="FP32">
					<dim>1</dim>
					<dim>3</dim>
					<dim>1536</dim>
					<dim>1536</dim>
				</port>
				<port id="1" precision="FP32">
					<dim>56</dim>
					<dim>3</dim>
					<dim>3</dim>
					<dim>3</dim>
				</port>
			</input>
			<output>
				<port id="2" precision="FP32">
					<dim>1</dim>
					<dim>56</dim>
					<dim>768</dim>
					<dim>768</dim>
				</port>
			</output>
		</layer>
		<layer id="9" name="data_add_7901379018" type="Const" version="opset1">
			<data element_type="f32" shape="1, 56, 1, 1" offset="6104" size="224" />
			<output>
				<port id="0" precision="FP32">
					<dim>1</dim>
					<dim>56</dim>
					<dim>1</dim>
					<dim>1</dim>
				</port>
			</output>
		</layer>
		<layer id="10" name="efficientnet-b6/stem/tpu_batch_normalization/FusedBatchNormV3/variance/Fused_Add_" type="Add" version="opset1">
			<data auto_broadcast="numpy" />
			<input>
				<port id="0" precision="FP32">
					<dim>1</dim>
					<dim>56</dim>
					<dim>768</dim>
					<dim>768</dim>
				</port>
				<port id="1" precision="FP32">
					<dim>1</dim>
					<dim>56</dim>
					<dim>1</dim>
					<dim>1</dim>
				</port>
			</input>
			<output>
				<port id="2" precision="FP32" names="efficientnet-b6/stem/mul:0,efficientnet-b6/stem/tpu_batch_normalization/FusedBatchNormV3:0">
					<dim>1</dim>
					<dim>56</dim>
					<dim>768</dim>
					<dim>768</dim>
				</port>
			</output>
		</layer>
		<layer id="11" name="efficientnet-b6/stem/mul_1" type="Swish" version="opset4">
			<input>
				<port id="0" precision="FP32">
					<dim>1</dim>
					<dim>56</dim>
					<dim>768</dim>
					<dim>768</dim>
				</port>
			</input>
			<output>
				<port id="1" precision="FP32" names="efficientnet-b6/stem/IdentityN:0,efficientnet-b6/stem/mul_1:0">
					<dim>1</dim>
					<dim>56</dim>
					<dim>768</dim>
					<dim>768</dim>
				</port>
			</output>
		</layer>
		<layer id="12" name="efficientnet-b6/blocks_0/tpu_batch_normalization/FusedBatchNormV3/mean/Fused_Mul__copy" type="Const" version="opset1">
			<data element_type="f32" shape="56, 1, 1, 3, 3" offset="6328" size="2016" />
			<output>
				<port id="0" precision="FP32" names="efficientnet-b6/blocks_0/depthwise_conv2d/depthwise/ReadVariableOp:0">
					<dim>56</dim>
					<dim>1</dim>
					<dim>1</dim>
					<dim>3</dim>
					<dim>3</dim>
				</port>
			</output>
		</layer>
		<layer id="13" name="efficientnet-b6/blocks_0/depthwise_conv2d/depthwise" type="GroupConvolution" version="opset1">
			<data strides="1, 1" pads_begin="0, 0" pads_end="0, 0" dilations="1, 1" auto_pad="same_upper" />
			<input>
				<port id="0" precision="FP32">
					<dim>1</dim>
					<dim>56</dim>
					<dim>768</dim>
					<dim>768</dim>
				</port>
				<port id="1" precision="FP32">
					<dim>56</dim>
					<dim>1</dim>
					<dim>1</dim>
					<dim>3</dim>
					<dim>3</dim>
				</port>
			</input>
			<output>
				<port id="2" precision="FP32">
					<dim>1</dim>
					<dim>56</dim>
					<dim>768</dim>
					<dim>768</dim>
				</port>
			</output>
		</layer>
		<layer id="14" name="data_add_7902179026" type="Const" version="opset1">
			<data element_type="f32" shape="1, 56, 1, 1" offset="8344" size="224" />
			<output>
				<port id="0" precision="FP32">
					<dim>1</dim>
					<dim>56</dim>
					<dim>1</dim>
					<dim>1</dim>
				</port>
			</output>
		</layer>
		<layer id="15" name="efficientnet-b6/blocks_0/tpu_batch_normalization/FusedBatchNormV3/variance/Fused_Add_" type="Add" version="opset1">
			<data auto_broadcast="numpy" />
			<input>
				<port id="0" precision="FP32">
					<dim>1</dim>
					<dim>56</dim>
					<dim>768</dim>
					<dim>768</dim>
				</port>
				<port id="1" precision="FP32">
					<dim>1</dim>
					<dim>56</dim>
					<dim>1</dim>
					<dim>1</dim>
				</port>
			</input>
			<output>
				<port id="2" precision="FP32" names="efficientnet-b6/blocks_0/mul:0,efficientnet-b6/blocks_0/tpu_batch_normalization/FusedBatchNormV3:0">
					<dim>1</dim>
					<dim>56</dim>
					<dim>768</dim>
					<dim>768</dim>
				</port>
			</output>
		</layer>
		<layer id="16" name="efficientnet-b6/blocks_0/mul_1" type="Swish" version="opset4">
			<input>
				<port id="0" precision="FP32">
					<dim>1</dim>
					<dim>56</dim>
					<dim>768</dim>
					<dim>768</dim>
				</port>
			</input>
			<output>
				<port id="1" precision="FP32" names="efficientnet-b6/blocks_0/IdentityN:0,efficientnet-b6/blocks_0/mul_1:0">
					<dim>1</dim>
					<dim>56</dim>
					<dim>768</dim>
					<dim>768</dim>
				</port>
			</output>
		</layer>
		<layer id="17" name="105152150238" type="Const" version="opset1">
			<data element_type="i64" shape="2" offset="8568" size="16" />
			<output>
				<port id="0" precision="I64">
					<dim>2</dim>
				</port>
			</output>
		</layer>
		<layer id="18" name="efficientnet-b6/blocks_0/se/Mean" type="ReduceMean" version="opset1">
			<data keep_dims="true" />
			<input>
				<port id="0" precision="FP32">
					<dim>1</dim>
					<dim>56</dim>
					<dim>768</dim>
					<dim>768</dim>
				</port>
				<port id="1" precision="I64">
					<dim>2</dim>
				</port>
			</input>
			<output>
				<port id="2" precision="FP32" names="efficientnet-b6/blocks_0/se/Mean:0">
					<dim>1</dim>
					<dim>56</dim>
					<dim>1</dim>
					<dim>1</dim>
				</port>
			</output>
		</layer>
		<layer id="19" name="efficientnet-b6/blocks_0/se/conv2d/Conv2D/ReadVariableOp" type="Const" version="opset1">
			<data element_type="f32" shape="14, 56, 1, 1" offset="8584" size="3136" />
			<output>
				<port id="0" precision="FP32" names="efficientnet-b6/blocks_0/se/conv2d/Conv2D/ReadVariableOp:0">
					<dim>14</dim>
					<dim>56</dim>
					<dim>1</dim>
					<dim>1</dim>
				</port>
			</output>
		</layer>
		<layer id="20" name="efficientnet-b6/blocks_0/se/conv2d/Conv2D" type="Convolution" version="opset1">
			<data strides="1, 1" dilations="1, 1" pads_begin="0, 0" pads_end="0, 0" auto_pad="same_upper" />
			<input>
				<port id="0" precision="FP32">
					<dim>1</dim>
					<dim>56</dim>
					<dim>1</dim>
					<dim>1</dim>
				</port>
				<port id="1" precision="FP32">
					<dim>14</dim>
					<dim>56</dim>
					<dim>1</dim>
					<dim>1</dim>
				</port>
			</input>
			<output>
				<port id="2" precision="FP32" names="efficientnet-b6/blocks_0/se/conv2d/Conv2D:0">
					<dim>1</dim>
					<dim>14</dim>
					<dim>1</dim>
					<dim>1</dim>
				</port>
			</output>
		</layer>
		<layer id="21" name="efficientnet-b6/blocks_0/se/conv2d/BiasAdd/ReadVariableOp" type="Const" version="opset1">
			<data element_type="f32" shape="1, 14, 1, 1" offset="11720" size="56" />
			<output>
				<port id="0" precision="FP32" names="efficientnet-b6/blocks_0/se/conv2d/BiasAdd/ReadVariableOp:0">
					<dim>1</dim>
					<dim>14</dim>
					<dim>1</dim>
					<dim>1</dim>
				</port>
			</output>
		</layer>
		<layer id="22" name="efficientnet-b6/blocks_0/se/conv2d/BiasAdd/Add" type="Add" version="opset1">
			<data auto_broadcast="numpy" />
			<input>
				<port id="0" precision="FP32">
					<dim>1</dim>
					<dim>14</dim>
					<dim>1</dim>
					<dim>1</dim>
				</port>
				<port id="1" precision="FP32">
					<dim>1</dim>
					<dim>14</dim>
					<dim>1</dim>
					<dim>1</dim>
				</port>
			</input>
			<output>
				<port id="2" precision="FP32" names="efficientnet-b6/blocks_0/se/conv2d/BiasAdd:0,efficientnet-b6/blocks_0/se/mul:0">
					<dim>1</dim>
					<dim>14</dim>
					<dim>1</dim>
					<dim>1</dim>
				</port>
			</output>
		</layer>
		<layer id="23" name="efficientnet-b6/blocks_0/se/mul_1" type="Swish" version="opset4">
			<input>
				<port id="0" precision="FP32">
					<dim>1</dim>
					<dim>14</dim>
					<dim>1</dim>
					<dim>1</dim>
				</port>
			</input>
			<output>
				<port id="1" precision="FP32" names="efficientnet-b6/blocks_0/se/IdentityN:0,efficientnet-b6/blocks_0/se/mul_1:0">
					<dim>1</dim>
					<dim>14</dim>
					<dim>1</dim>
					<dim>1</dim>
				</port>
			</output>
		</layer>
		<layer id="24" name="efficientnet-b6/blocks_0/se/conv2d_1/Conv2D/ReadVariableOp" type="Const" version="opset1">
			<data element_type="f32" shape="56, 14, 1, 1" offset="11776" size="3136" />
			<output>
				<port id="0" precision="FP32" names="efficientnet-b6/blocks_0/se/conv2d_1/Conv2D/ReadVariableOp:0">
					<dim>56</dim>
					<dim>14</dim>
					<dim>1</dim>
					<dim>1</dim>
				</port>
			</output>
		</layer>
		<layer id="25" name="efficientnet-b6/blocks_0/se/conv2d_1/Conv2D" type="Convolution" version="opset1">
			<data strides="1, 1" dilations="1, 1" pads_begin="0, 0" pads_end="0, 0" auto_pad="same_upper" />
			<input>
				<port id="0" precision="FP32">
					<dim>1</dim>
					<dim>14</dim>
					<dim>1</dim>
					<dim>1</dim>
				</port>
				<port id="1" precision="FP32">
					<dim>56</dim>
					<dim>14</dim>
					<dim>1</dim>
					<dim>1</dim>
				</port>
			</input>
			<output>
				<port id="2" precision="FP32" names="efficientnet-b6/blocks_0/se/conv2d_1/Conv2D:0">
					<dim>1</dim>
					<dim>56</dim>
					<dim>1</dim>
					<dim>1</dim>
				</port>
			</output>
		</layer>
		<layer id="26" name="efficientnet-b6/blocks_0/se/conv2d_1/BiasAdd/ReadVariableOp" type="Const" version="opset1">
			<data element_type="f32" shape="1, 56, 1, 1" offset="14912" size="224" />
			<output>
				<port id="0" precision="FP32" names="efficientnet-b6/blocks_0/se/conv2d_1/BiasAdd/ReadVariableOp:0">
					<dim>1</dim>
					<dim>56</dim>
					<dim>1</dim>
					<dim>1</dim>
				</port>
			</output>
		</layer>
		<layer id="27" name="efficientnet-b6/blocks_0/se/conv2d_1/BiasAdd/Add" type="Add" version="opset1">
			<data auto_broadcast="numpy" />
			<input>
				<port id="0" precision="FP32">
					<dim>1</dim>
					<dim>56</dim>
					<dim>1</dim>
					<dim>1</dim>
				</port>
				<port id="1" precision="FP32">
					<dim>1</dim>
					<dim>56</dim>
					<dim>1</dim>
					<dim>1</dim>
				</port>
			</input>
			<output>
				<port id="2" precision="FP32" names="efficientnet-b6/blocks_0/se/conv2d_1/BiasAdd:0">
					<dim>1</dim>
					<dim>56</dim>
					<dim>1</dim>
					<dim>1</dim>
				</port>
			</output>
		</layer>
		<layer id="28" name="efficientnet-b6/blocks_0/se/Sigmoid_1" type="Sigmoid" version="opset1">
			<input>
				<port id="0" precision="FP32">
					<dim>1</dim>
					<dim>56</dim>
					<dim>1</dim>
					<dim>1</dim>
				</port>
			</input>
			<output>
				<port id="1" precision="FP32" names="efficientnet-b6/blocks_0/se/Sigmoid_1:0">
					<dim>1</dim>
					<dim>56</dim>
					<dim>1</dim>
					<dim>1</dim>
				</port>
			</output>
		</layer>
		<layer id="29" name="efficientnet-b6/blocks_0/se/mul_2" type="Multiply" version="opset1">
			<data auto_broadcast="numpy" />
			<input>
				<port id="0" precision="FP32">
					<dim>1</dim>
					<dim>56</dim>
					<dim>1</dim>
					<dim>1</dim>
				</port>
				<port id="1" precision="FP32">
					<dim>1</dim>
					<dim>56</dim>
					<dim>768</dim>
					<dim>768</dim>
				</port>
			</input>
			<output>
				<port id="2" precision="FP32" names="efficientnet-b6/blocks_0/se/mul_2:0">
					<dim>1</dim>
					<dim>56</dim>
					<dim>768</dim>
					<dim>768</dim>
				</port>
			</output>
		</layer>
		<layer id="30" name="efficientnet-b6/blocks_0/tpu_batch_normalization_1/FusedBatchNormV3/mean/Fused_Mul__copy" type="Const" version="opset1">
			<data element_type="f32" shape="32, 56, 1, 1" offset="15136" size="7168" />
			<output>
				<port id="0" precision="FP32" names="efficientnet-b6/blocks_0/conv2d/Conv2D/ReadVariableOp:0">
					<dim>32</dim>
					<dim>56</dim>
					<dim>1</dim>
					<dim>1</dim>
				</port>
			</output>
		</layer>
		<layer id="31" name="efficientnet-b6/blocks_0/conv2d/Conv2D" type="Convolution" version="opset1">
			<data strides="1, 1" dilations="1, 1" pads_begin="0, 0" pads_end="0, 0" auto_pad="same_upper" />
			<input>
				<port id="0" precision="FP32">
					<dim>1</dim>
					<dim>56</dim>
					<dim>768</dim>
					<dim>768</dim>
				</port>
				<port id="1" precision="FP32">
					<dim>32</dim>
					<dim>56</dim>
					<dim>1</dim>
					<dim>1</dim>
				</port>
			</input>
			<output>
				<port id="2" precision="FP32">
					<dim>1</dim>
					<dim>32</dim>
					<dim>768</dim>
					<dim>768</dim>
				</port>
			</output>
		</layer>
		<layer id="32" name="data_add_7902979034" type="Const" version="opset1">
			<data element_type="f32" shape="1, 32, 1, 1" offset="22304" size="128" />
			<output>
				<port id="0" precision="FP32">
					<dim>1</dim>
					<dim>32</dim>
					<dim>1</dim>
					<dim>1</dim>
				</port>
			</output>
		</layer>
		<layer id="33" name="efficientnet-b6/blocks_0/tpu_batch_normalization_1/FusedBatchNormV3/variance/Fused_Add_" type="Add" version="opset1">
			<data auto_broadcast="numpy" />
			<input>
				<port id="0" precision="FP32">
					<dim>1</dim>
					<dim>32</dim>
					<dim>768</dim>
					<dim>768</dim>
				</port>
				<port id="1" precision="FP32">
					<dim>1</dim>
					<dim>32</dim>
					<dim>1</dim>
					<dim>1</dim>
				</port>
			</input>
			<output>
				<port id="2" precision="FP32" names="efficientnet-b6/blocks_0/Identity_1:0,efficientnet-b6/blocks_0/tpu_batch_normalization_1/FusedBatchNormV3:0">
					<dim>1</dim>
					<dim>32</dim>
					<dim>768</dim>
					<dim>768</dim>
				</port>
			</output>
		</layer>
		<layer id="34" name="efficientnet-b6/blocks_1/tpu_batch_normalization/FusedBatchNormV3/mean/Fused_Mul__copy" type="Const" version="opset1">
			<data element_type="f32" shape="32, 1, 1, 3, 3" offset="22432" size="1152" />
			<output>
				<port id="0" precision="FP32" names="efficientnet-b6/blocks_1/depthwise_conv2d/depthwise/ReadVariableOp:0">
					<dim>32</dim>
					<dim>1</dim>
					<dim>1</dim>
					<dim>3</dim>
					<dim>3</dim>
				</port>
			</output>
		</layer>
		<layer id="35" name="efficientnet-b6/blocks_1/depthwise_conv2d/depthwise" type="GroupConvolution" version="opset1">
			<data strides="1, 1" pads_begin="0, 0" pads_end="0, 0" dilations="1, 1" auto_pad="same_upper" />
			<input>
				<port id="0" precision="FP32">
					<dim>1</dim>
					<dim>32</dim>
					<dim>768</dim>
					<dim>768</dim>
				</port>
				<port id="1" precision="FP32">
					<dim>32</dim>
					<dim>1</dim>
					<dim>1</dim>
					<dim>3</dim>
					<dim>3</dim>
				</port>
			</input>
			<output>
				<port id="2" precision="FP32">
					<dim>1</dim>
					<dim>32</dim>
					<dim>768</dim>
					<dim>768</dim>
				</port>
			</output>
		</layer>
		<layer id="36" name="data_add_7903779042" type="Const" version="opset1">
			<data element_type="f32" shape="1, 32, 1, 1" offset="23584" size="128" />
			<output>
				<port id="0" precision="FP32">
					<dim>1</dim>
					<dim>32</dim>
					<dim>1</dim>
					<dim>1</dim>
				</port>
			</output>
		</layer>
		<layer id="37" name="efficientnet-b6/blocks_1/tpu_batch_normalization/FusedBatchNormV3/variance/Fused_Add_" type="Add" version="opset1">
			<data auto_broadcast="numpy" />
			<input>
				<port id="0" precision="FP32">
					<dim>1</dim>
					<dim>32</dim>
					<dim>768</dim>
					<dim>768</dim>
				</port>
				<port id="1" precision="FP32">
					<dim>1</dim>
					<dim>32</dim>
					<dim>1</dim>
					<dim>1</dim>
				</port>
			</input>
			<output>
				<port id="2" precision="FP32" names="efficientnet-b6/blocks_1/mul:0,efficientnet-b6/blocks_1/tpu_batch_normalization/FusedBatchNormV3:0">
					<dim>1</dim>
					<dim>32</dim>
					<dim>768</dim>
					<dim>768</dim>
				</port>
			</output>
		</layer>
		<layer id="38" name="efficientnet-b6/blocks_1/mul_1" type="Swish" version="opset4">
			<input>
				<port id="0" precision="FP32">
					<dim>1</dim>
					<dim>32</dim>
					<dim>768</dim>
					<dim>768</dim>
				</port>
			</input>
			<output>
				<port id="1" precision="FP32" names="efficientnet-b6/blocks_1/IdentityN:0,efficientnet-b6/blocks_1/mul_1:0">
					<dim>1</dim>
					<dim>32</dim>
					<dim>768</dim>
					<dim>768</dim>
				</port>
			</output>
		</layer>
		<layer id="39" name="105174148615" type="Const" version="opset1">
			<data element_type="i64" shape="2" offset="8568" size="16" />
			<output>
				<port id="0" precision="I64">
					<dim>2</dim>
				</port>
			</output>
		</layer>
		<layer id="40" name="efficientnet-b6/blocks_1/se/Mean" type="ReduceMean" version="opset1">
			<data keep_dims="true" />
			<input>
				<port id="0" precision="FP32">
					<dim>1</dim>
					<dim>32</dim>
					<dim>768</dim>
					<dim>768</dim>
				</port>
				<port id="1" precision="I64">
					<dim>2</dim>
				</port>
			</input>
			<output>
				<port id="2" precision="FP32" names="efficientnet-b6/blocks_1/se/Mean:0">
					<dim>1</dim>
					<dim>32</dim>
					<dim>1</dim>
					<dim>1</dim>
				</port>
			</output>
		</layer>
		<layer id="41" name="efficientnet-b6/blocks_1/se/conv2d/Conv2D/ReadVariableOp" type="Const" version="opset1">
			<data element_type="f32" shape="8, 32, 1, 1" offset="23712" size="1024" />
			<output>
				<port id="0" precision="FP32" names="efficientnet-b6/blocks_1/se/conv2d/Conv2D/ReadVariableOp:0">
					<dim>8</dim>
					<dim>32</dim>
					<dim>1</dim>
					<dim>1</dim>
				</port>
			</output>
		</layer>
		<layer id="42" name="efficientnet-b6/blocks_1/se/conv2d/Conv2D" type="Convolution" version="opset1">
			<data strides="1, 1" dilations="1, 1" pads_begin="0, 0" pads_end="0, 0" auto_pad="same_upper" />
			<input>
				<port id="0" precision="FP32">
					<dim>1</dim>
					<dim>32</dim>
					<dim>1</dim>
					<dim>1</dim>
				</port>
				<port id="1" precision="FP32">
					<dim>8</dim>
					<dim>32</dim>
					<dim>1</dim>
					<dim>1</dim>
				</port>
			</input>
			<output>
				<port id="2" precision="FP32" names="efficientnet-b6/blocks_1/se/conv2d/Conv2D:0">
					<dim>1</dim>
					<dim>8</dim>
					<dim>1</dim>
					<dim>1</dim>
				</port>
			</output>
		</layer>
		<layer id="43" name="efficientnet-b6/blocks_1/se/conv2d/BiasAdd/ReadVariableOp" type="Const" version="opset1">
			<data element_type="f32" shape="1, 8, 1, 1" offset="24736" size="32" />
			<output>
				<port id="0" precision="FP32" names="efficientnet-b6/blocks_1/se/conv2d/BiasAdd/ReadVariableOp:0">
					<dim>1</dim>
					<dim>8</dim>
					<dim>1</dim>
					<dim>1</dim>
				</port>
			</output>
		</layer>
		<layer id="44" name="efficientnet-b6/blocks_1/se/conv2d/BiasAdd/Add" type="Add" version="opset1">
			<data auto_broadcast="numpy" />
			<input>
				<port id="0" precision="FP32">
					<dim>1</dim>
					<dim>8</dim>
					<dim>1</dim>
					<dim>1</dim>
				</port>
				<port id="1" precision="FP32">
					<dim>1</dim>
					<dim>8</dim>
					<dim>1</dim>
					<dim>1</dim>
				</port>
			</input>
			<output>
				<port id="2" precision="FP32" names="efficientnet-b6/blocks_1/se/conv2d/BiasAdd:0,efficientnet-b6/blocks_1/se/mul:0">
					<dim>1</dim>
					<dim>8</dim>
					<dim>1</dim>
					<dim>1</dim>
				</port>
			</output>
		</layer>
		<layer id="45" name="efficientnet-b6/blocks_1/se/mul_1" type="Swish" version="opset4">
			<input>
				<port id="0" precision="FP32">
					<dim>1</dim>
					<dim>8</dim>
					<dim>1</dim>
					<dim>1</dim>
				</port>
			</input>
			<output>
				<port id="1" precision="FP32" names="efficientnet-b6/blocks_1/se/IdentityN:0,efficientnet-b6/blocks_1/se/mul_1:0">
					<dim>1</dim>
					<dim>8</dim>
					<dim>1</dim>
					<dim>1</dim>
				</port>
			</output>
		</layer>
		<layer id="46" name="efficientnet-b6/blocks_1/se/conv2d_1/Conv2D/ReadVariableOp" type="Const" version="opset1">
			<data element_type="f32" shape="32, 8, 1, 1" offset="24768" size="1024" />
			<output>
				<port id="0" precision="FP32" names="efficientnet-b6/blocks_1/se/conv2d_1/Conv2D/ReadVariableOp:0">
					<dim>32</dim>
					<dim>8</dim>
					<dim>1</dim>
					<dim>1</dim>
				</port>
			</output>
		</layer>
		<layer id="47" name="efficientnet-b6/blocks_1/se/conv2d_1/Conv2D" type="Convolution" version="opset1">
			<data strides="1, 1" dilations="1, 1" pads_begin="0, 0" pads_end="0, 0" auto_pad="same_upper" />
			<input>
				<port id="0" precision="FP32">
					<dim>1</dim>
					<dim>8</dim>
					<dim>1</dim>
					<dim>1</dim>
				</port>
				<port id="1" precision="FP32">
					<dim>32</dim>
					<dim>8</dim>
					<dim>1</dim>
					<dim>1</dim>
				</port>
			</input>
			<output>
				<port id="2" precision="FP32" names="efficientnet-b6/blocks_1/se/conv2d_1/Conv2D:0">
					<dim>1</dim>
					<dim>32</dim>
					<dim>1</dim>
					<dim>1</dim>
				</port>
			</output>
		</layer>
		<layer id="48" name="efficientnet-b6/blocks_1/se/conv2d_1/BiasAdd/ReadVariableOp" type="Const" version="opset1">
			<data element_type="f32" shape="1, 32, 1, 1" offset="25792" size="128" />
			<output>
				<port id="0" precision="FP32" names="efficientnet-b6/blocks_1/se/conv2d_1/BiasAdd/ReadVariableOp:0">
					<dim>1</dim>
					<dim>32</dim>
					<dim>1</dim>
					<dim>1</dim>
				</port>
			</output>
		</layer>
		<layer id="49" name="efficientnet-b6/blocks_1/se/conv2d_1/BiasAdd/Add" type="Add" version="opset1">
			<data auto_broadcast="numpy" />
			<input>
				<port id="0" precision="FP32">
					<dim>1</dim>
					<dim>32</dim>
					<dim>1</dim>
					<dim>1</dim>
				</port>
				<port id="1" precision="FP32">
					<dim>1</dim>
					<dim>32</dim>
					<dim>1</dim>
					<dim>1</dim>
				</port>
			</input>
			<output>
				<port id="2" precision="FP32" names="efficientnet-b6/blocks_1/se/conv2d_1/BiasAdd:0">
					<dim>1</dim>
					<dim>32</dim>
					<dim>1</dim>
					<dim>1</dim>
				</port>
			</output>
		</layer>
		<layer id="50" name="efficientnet-b6/blocks_1/se/Sigmoid_1" type="Sigmoid" version="opset1">
			<input>
				<port id="0" precision="FP32">
					<dim>1</dim>
					<dim>32</dim>
					<dim>1</dim>
					<dim>1</dim>
				</port>
			</input>
			<output>
				<port id="1" precision="FP32" names="efficientnet-b6/blocks_1/se/Sigmoid_1:0">
					<dim>1</dim>
					<dim>32</dim>
					<dim>1</dim>
					<dim>1</dim>
				</port>
			</output>
		</layer>
		<layer id="51" name="efficientnet-b6/blocks_1/se/mul_2" type="Multiply" version="opset1">
			<data auto_broadcast="numpy" />
			<input>
				<port id="0" precision="FP32">
					<dim>1</dim>
					<dim>32</dim>
					<dim>1</dim>
					<dim>1</dim>
				</port>
				<port id="1" precision="FP32">
					<dim>1</dim>
					<dim>32</dim>
					<dim>768</dim>
					<dim>768</dim>
				</port>
			</input>
			<output>
				<port id="2" precision="FP32" names="efficientnet-b6/blocks_1/se/mul_2:0">
					<dim>1</dim>
					<dim>32</dim>
					<dim>768</dim>
					<dim>768</dim>
				</port>
			</output>
		</layer>
		<layer id="52" name="efficientnet-b6/blocks_1/tpu_batch_normalization_1/FusedBatchNormV3/mean/Fused_Mul__copy" type="Const" version="opset1">
			<data element_type="f32" shape="32, 32, 1, 1" offset="25920" size="4096" />
			<output>
				<port id="0" precision="FP32" names="efficientnet-b6/blocks_1/conv2d/Conv2D/ReadVariableOp:0">
					<dim>32</dim>
					<dim>32</dim>
					<dim>1</dim>
					<dim>1</dim>
				</port>
			</output>
		</layer>
		<layer id="53" name="efficientnet-b6/blocks_1/conv2d/Conv2D" type="Convolution" version="opset1">
			<data strides="1, 1" dilations="1, 1" pads_begin="0, 0" pads_end="0, 0" auto_pad="same_upper" />
			<input>
				<port id="0" precision="FP32">
					<dim>1</dim>
					<dim>32</dim>
					<dim>768</dim>
					<dim>768</dim>
				</port>
				<port id="1" precision="FP32">
					<dim>32</dim>
					<dim>32</dim>
					<dim>1</dim>
					<dim>1</dim>
				</port>
			</input>
			<output>
				<port id="2" precision="FP32">
					<dim>1</dim>
					<dim>32</dim>
					<dim>768</dim>
					<dim>768</dim>
				</port>
			</output>
		</layer>
		<layer id="54" name="data_add_7904579050" type="Const" version="opset1">
			<data element_type="f32" shape="1, 32, 1, 1" offset="30016" size="128" />
			<output>
				<port id="0" precision="FP32">
					<dim>1</dim>
					<dim>32</dim>
					<dim>1</dim>
					<dim>1</dim>
				</port>
			</output>
		</layer>
		<layer id="55" name="efficientnet-b6/blocks_1/tpu_batch_normalization_1/FusedBatchNormV3/variance/Fused_Add_" type="Add" version="opset1">
			<data auto_broadcast="numpy" />
			<input>
				<port id="0" precision="FP32">
					<dim>1</dim>
					<dim>32</dim>
					<dim>768</dim>
					<dim>768</dim>
				</port>
				<port id="1" precision="FP32">
					<dim>1</dim>
					<dim>32</dim>
					<dim>1</dim>
					<dim>1</dim>
				</port>
			</input>
			<output>
				<port id="2" precision="FP32" names="efficientnet-b6/blocks_1/Identity_1:0,efficientnet-b6/blocks_1/tpu_batch_normalization_1/FusedBatchNormV3:0">
					<dim>1</dim>
					<dim>32</dim>
					<dim>768</dim>
					<dim>768</dim>
				</port>
			</output>
		</layer>
		<layer id="56" name="efficientnet-b6/blocks_1/Add" type="Add" version="opset1">
			<data auto_broadcast="numpy" />
			<input>
				<port id="0" precision="FP32">
					<dim>1</dim>
					<dim>32</dim>
					<dim>768</dim>
					<dim>768</dim>
				</port>
				<port id="1" precision="FP32">
					<dim>1</dim>
					<dim>32</dim>
					<dim>768</dim>
					<dim>768</dim>
				</port>
			</input>
			<output>
				<port id="2" precision="FP32" names="efficientnet-b6/blocks_1/Add:0">
					<dim>1</dim>
					<dim>32</dim>
					<dim>768</dim>
					<dim>768</dim>
				</port>
			</output>
		</layer>
		<layer id="57" name="efficientnet-b6/blocks_2/tpu_batch_normalization/FusedBatchNormV3/mean/Fused_Mul__copy" type="Const" version="opset1">
			<data element_type="f32" shape="32, 1, 1, 3, 3" offset="30144" size="1152" />
			<output>
				<port id="0" precision="FP32" names="efficientnet-b6/blocks_2/depthwise_conv2d/depthwise/ReadVariableOp:0">
					<dim>32</dim>
					<dim>1</dim>
					<dim>1</dim>
					<dim>3</dim>
					<dim>3</dim>
				</port>
			</output>
		</layer>
		<layer id="58" name="efficientnet-b6/blocks_2/depthwise_conv2d/depthwise" type="GroupConvolution" version="opset1">
			<data strides="1, 1" pads_begin="0, 0" pads_end="0, 0" dilations="1, 1" auto_pad="same_upper" />
			<input>
				<port id="0" precision="FP32">
					<dim>1</dim>
					<dim>32</dim>
					<dim>768</dim>
					<dim>768</dim>
				</port>
				<port id="1" precision="FP32">
					<dim>32</dim>
					<dim>1</dim>
					<dim>1</dim>
					<dim>3</dim>
					<dim>3</dim>
				</port>
			</input>
			<output>
				<port id="2" precision="FP32">
					<dim>1</dim>
					<dim>32</dim>
					<dim>768</dim>
					<dim>768</dim>
				</port>
			</output>
		</layer>
		<layer id="59" name="data_add_7905379058" type="Const" version="opset1">
			<data element_type="f32" shape="1, 32, 1, 1" offset="31296" size="128" />
			<output>
				<port id="0" precision="FP32">
					<dim>1</dim>
					<dim>32</dim>
					<dim>1</dim>
					<dim>1</dim>
				</port>
			</output>
		</layer>
		<layer id="60" name="efficientnet-b6/blocks_2/tpu_batch_normalization/FusedBatchNormV3/variance/Fused_Add_" type="Add" version="opset1">
			<data auto_broadcast="numpy" />
			<input>
				<port id="0" precision="FP32">
					<dim>1</dim>
					<dim>32</dim>
					<dim>768</dim>
					<dim>768</dim>
				</port>
				<port id="1" precision="FP32">
					<dim>1</dim>
					<dim>32</dim>
					<dim>1</dim>
					<dim>1</dim>
				</port>
			</input>
			<output>
				<port id="2" precision="FP32" names="efficientnet-b6/blocks_2/mul:0,efficientnet-b6/blocks_2/tpu_batch_normalization/FusedBatchNormV3:0">
					<dim>1</dim>
					<dim>32</dim>
					<dim>768</dim>
					<dim>768</dim>
				</port>
			</output>
		</layer>
		<layer id="61" name="efficientnet-b6/blocks_2/mul_1" type="Swish" version="opset4">
			<input>
				<port id="0" precision="FP32">
					<dim>1</dim>
					<dim>32</dim>
					<dim>768</dim>
					<dim>768</dim>
				</port>
			</input>
			<output>
				<port id="1" precision="FP32" names="efficientnet-b6/blocks_2/IdentityN:0,efficientnet-b6/blocks_2/mul_1:0">
					<dim>1</dim>
					<dim>32</dim>
					<dim>768</dim>
					<dim>768</dim>
				</port>
			</output>
		</layer>
		<layer id="62" name="105196147985" type="Const" version="opset1">
			<data element_type="i64" shape="2" offset="8568" size="16" />
			<output>
				<port id="0" precision="I64">
					<dim>2</dim>
				</port>
			</output>
		</layer>
		<layer id="63" name="efficientnet-b6/blocks_2/se/Mean" type="ReduceMean" version="opset1">
			<data keep_dims="true" />
			<input>
				<port id="0" precision="FP32">
					<dim>1</dim>
					<dim>32</dim>
					<dim>768</dim>
					<dim>768</dim>
				</port>
				<port id="1" precision="I64">
					<dim>2</dim>
				</port>
			</input>
			<output>
				<port id="2" precision="FP32" names="efficientnet-b6/blocks_2/se/Mean:0">
					<dim>1</dim>
					<dim>32</dim>
					<dim>1</dim>
					<dim>1</dim>
				</port>
			</output>
		</layer>
		<layer id="64" name="efficientnet-b6/blocks_2/se/conv2d/Conv2D/ReadVariableOp" type="Const" version="opset1">
			<data element_type="f32" shape="8, 32, 1, 1" offset="31424" size="1024" />
			<output>
				<port id="0" precision="FP32" names="efficientnet-b6/blocks_2/se/conv2d/Conv2D/ReadVariableOp:0">
					<dim>8</dim>
					<dim>32</dim>
					<dim>1</dim>
					<dim>1</dim>
				</port>
			</output>
		</layer>
		<layer id="65" name="efficientnet-b6/blocks_2/se/conv2d/Conv2D" type="Convolution" version="opset1">
			<data strides="1, 1" dilations="1, 1" pads_begin="0, 0" pads_end="0, 0" auto_pad="same_upper" />
			<input>
				<port id="0" precision="FP32">
					<dim>1</dim>
					<dim>32</dim>
					<dim>1</dim>
					<dim>1</dim>
				</port>
				<port id="1" precision="FP32">
					<dim>8</dim>
					<dim>32</dim>
					<dim>1</dim>
					<dim>1</dim>
				</port>
			</input>
			<output>
				<port id="2" precision="FP32" names="efficientnet-b6/blocks_2/se/conv2d/Conv2D:0">
					<dim>1</dim>
					<dim>8</dim>
					<dim>1</dim>
					<dim>1</dim>
				</port>
			</output>
		</layer>
		<layer id="66" name="efficientnet-b6/blocks_2/se/conv2d/BiasAdd/ReadVariableOp" type="Const" version="opset1">
			<data element_type="f32" shape="1, 8, 1, 1" offset="32448" size="32" />
			<output>
				<port id="0" precision="FP32" names="efficientnet-b6/blocks_2/se/conv2d/BiasAdd/ReadVariableOp:0">
					<dim>1</dim>
					<dim>8</dim>
					<dim>1</dim>
					<dim>1</dim>
				</port>
			</output>
		</layer>
		<layer id="67" name="efficientnet-b6/blocks_2/se/conv2d/BiasAdd/Add" type="Add" version="opset1">
			<data auto_broadcast="numpy" />
			<input>
				<port id="0" precision="FP32">
					<dim>1</dim>
					<dim>8</dim>
					<dim>1</dim>
					<dim>1</dim>
				</port>
				<port id="1" precision="FP32">
					<dim>1</dim>
					<dim>8</dim>
					<dim>1</dim>
					<dim>1</dim>
				</port>
			</input>
			<output>
				<port id="2" precision="FP32" names="efficientnet-b6/blocks_2/se/conv2d/BiasAdd:0,efficientnet-b6/blocks_2/se/mul:0">
					<dim>1</dim>
					<dim>8</dim>
					<dim>1</dim>
					<dim>1</dim>
				</port>
			</output>
		</layer>
		<layer id="68" name="efficientnet-b6/blocks_2/se/mul_1" type="Swish" version="opset4">
			<input>
				<port id="0" precision="FP32">
					<dim>1</dim>
					<dim>8</dim>
					<dim>1</dim>
					<dim>1</dim>
				</port>
			</input>
			<output>
				<port id="1" precision="FP32" names="efficientnet-b6/blocks_2/se/IdentityN:0,efficientnet-b6/blocks_2/se/mul_1:0">
					<dim>1</dim>
					<dim>8</dim>
					<dim>1</dim>
					<dim>1</dim>
				</port>
			</output>
		</layer>
		<layer id="69" name="efficientnet-b6/blocks_2/se/conv2d_1/Conv2D/ReadVariableOp" type="Const" version="opset1">
			<data element_type="f32" shape="32, 8, 1, 1" offset="32480" size="1024" />
			<output>
				<port id="0" precision="FP32" names="efficientnet-b6/blocks_2/se/conv2d_1/Conv2D/ReadVariableOp:0">
					<dim>32</dim>
					<dim>8</dim>
					<dim>1</dim>
					<dim>1</dim>
				</port>
			</output>
		</layer>
		<layer id="70" name="efficientnet-b6/blocks_2/se/conv2d_1/Conv2D" type="Convolution" version="opset1">
			<data strides="1, 1" dilations="1, 1" pads_begin="0, 0" pads_end="0, 0" auto_pad="same_upper" />
			<input>
				<port id="0" precision="FP32">
					<dim>1</dim>
					<dim>8</dim>
					<dim>1</dim>
					<dim>1</dim>
				</port>
				<port id="1" precision="FP32">
					<dim>32</dim>
					<dim>8</dim>
					<dim>1</dim>
					<dim>1</dim>
				</port>
			</input>
			<output>
				<port id="2" precision="FP32" names="efficientnet-b6/blocks_2/se/conv2d_1/Conv2D:0">
					<dim>1</dim>
					<dim>32</dim>
					<dim>1</dim>
					<dim>1</dim>
				</port>
			</output>
		</layer>
		<layer id="71" name="efficientnet-b6/blocks_2/se/conv2d_1/BiasAdd/ReadVariableOp" type="Const" version="opset1">
			<data element_type="f32" shape="1, 32, 1, 1" offset="33504" size="128" />
			<output>
				<port id="0" precision="FP32" names="efficientnet-b6/blocks_2/se/conv2d_1/BiasAdd/ReadVariableOp:0">
					<dim>1</dim>
					<dim>32</dim>
					<dim>1</dim>
					<dim>1</dim>
				</port>
			</output>
		</layer>
		<layer id="72" name="efficientnet-b6/blocks_2/se/conv2d_1/BiasAdd/Add" type="Add" version="opset1">
			<data auto_broadcast="numpy" />
			<input>
				<port id="0" precision="FP32">
					<dim>1</dim>
					<dim>32</dim>
					<dim>1</dim>
					<dim>1</dim>
				</port>
				<port id="1" precision="FP32">
					<dim>1</dim>
					<dim>32</dim>
					<dim>1</dim>
					<dim>1</dim>
				</port>
			</input>
			<output>
				<port id="2" precision="FP32" names="efficientnet-b6/blocks_2/se/conv2d_1/BiasAdd:0">
					<dim>1</dim>
					<dim>32</dim>
					<dim>1</dim>
					<dim>1</dim>
				</port>
			</output>
		</layer>
		<layer id="73" name="efficientnet-b6/blocks_2/se/Sigmoid_1" type="Sigmoid" version="opset1">
			<input>
				<port id="0" precision="FP32">
					<dim>1</dim>
					<dim>32</dim>
					<dim>1</dim>
					<dim>1</dim>
				</port>
			</input>
			<output>
				<port id="1" precision="FP32" names="efficientnet-b6/blocks_2/se/Sigmoid_1:0">
					<dim>1</dim>
					<dim>32</dim>
					<dim>1</dim>
					<dim>1</dim>
				</port>
			</output>
		</layer>
		<layer id="74" name="efficientnet-b6/blocks_2/se/mul_2" type="Multiply" version="opset1">
			<data auto_broadcast="numpy" />
			<input>
				<port id="0" precision="FP32">
					<dim>1</dim>
					<dim>32</dim>
					<dim>1</dim>
					<dim>1</dim>
				</port>
				<port id="1" precision="FP32">
					<dim>1</dim>
					<dim>32</dim>
					<dim>768</dim>
					<dim>768</dim>
				</port>
			</input>
			<output>
				<port id="2" precision="FP32" names="efficientnet-b6/blocks_2/se/mul_2:0">
					<dim>1</dim>
					<dim>32</dim>
					<dim>768</dim>
					<dim>768</dim>
				</port>
			</output>
		</layer>
		<layer id="75" name="efficientnet-b6/blocks_2/tpu_batch_normalization_1/FusedBatchNormV3/mean/Fused_Mul__copy" type="Const" version="opset1">
			<data element_type="f32" shape="32, 32, 1, 1" offset="33632" size="4096" />
			<output>
				<port id="0" precision="FP32" names="efficientnet-b6/blocks_2/conv2d/Conv2D/ReadVariableOp:0">
					<dim>32</dim>
					<dim>32</dim>
					<dim>1</dim>
					<dim>1</dim>
				</port>
			</output>
		</layer>
		<layer id="76" name="efficientnet-b6/blocks_2/conv2d/Conv2D" type="Convolution" version="opset1">
			<data strides="1, 1" dilations="1, 1" pads_begin="0, 0" pads_end="0, 0" auto_pad="same_upper" />
			<input>
				<port id="0" precision="FP32">
					<dim>1</dim>
					<dim>32</dim>
					<dim>768</dim>
					<dim>768</dim>
				</port>
				<port id="1" precision="FP32">
					<dim>32</dim>
					<dim>32</dim>
					<dim>1</dim>
					<dim>1</dim>
				</port>
			</input>
			<output>
				<port id="2" precision="FP32">
					<dim>1</dim>
					<dim>32</dim>
					<dim>768</dim>
					<dim>768</dim>
				</port>
			</output>
		</layer>
		<layer id="77" name="data_add_7906179066" type="Const" version="opset1">
			<data element_type="f32" shape="1, 32, 1, 1" offset="37728" size="128" />
			<output>
				<port id="0" precision="FP32">
					<dim>1</dim>
					<dim>32</dim>
					<dim>1</dim>
					<dim>1</dim>
				</port>
			</output>
		</layer>
		<layer id="78" name="efficientnet-b6/blocks_2/tpu_batch_normalization_1/FusedBatchNormV3/variance/Fused_Add_" type="Add" version="opset1">
			<data auto_broadcast="numpy" />
			<input>
				<port id="0" precision="FP32">
					<dim>1</dim>
					<dim>32</dim>
					<dim>768</dim>
					<dim>768</dim>
				</port>
				<port id="1" precision="FP32">
					<dim>1</dim>
					<dim>32</dim>
					<dim>1</dim>
					<dim>1</dim>
				</port>
			</input>
			<output>
				<port id="2" precision="FP32" names="efficientnet-b6/blocks_2/Identity_1:0,efficientnet-b6/blocks_2/tpu_batch_normalization_1/FusedBatchNormV3:0">
					<dim>1</dim>
					<dim>32</dim>
					<dim>768</dim>
					<dim>768</dim>
				</port>
			</output>
		</layer>
		<layer id="79" name="efficientnet-b6/blocks_2/Add" type="Add" version="opset1">
			<data auto_broadcast="numpy" />
			<input>
				<port id="0" precision="FP32">
					<dim>1</dim>
					<dim>32</dim>
					<dim>768</dim>
					<dim>768</dim>
				</port>
				<port id="1" precision="FP32">
					<dim>1</dim>
					<dim>32</dim>
					<dim>768</dim>
					<dim>768</dim>
				</port>
			</input>
			<output>
				<port id="2" precision="FP32" names="efficientnet-b6/blocks_2/Add:0">
					<dim>1</dim>
					<dim>32</dim>
					<dim>768</dim>
					<dim>768</dim>
				</port>
			</output>
		</layer>
		<layer id="80" name="efficientnet-b6/blocks_3/tpu_batch_normalization/FusedBatchNormV3/mean/Fused_Mul__copy" type="Const" version="opset1">
			<data element_type="f32" shape="192, 32, 1, 1" offset="37856" size="24576" />
			<output>
				<port id="0" precision="FP32" names="efficientnet-b6/blocks_3/conv2d/Conv2D/ReadVariableOp:0">
					<dim>192</dim>
					<dim>32</dim>
					<dim>1</dim>
					<dim>1</dim>
				</port>
			</output>
		</layer>
		<layer id="81" name="efficientnet-b6/blocks_3/conv2d/Conv2D" type="Convolution" version="opset1">
			<data strides="1, 1" dilations="1, 1" pads_begin="0, 0" pads_end="0, 0" auto_pad="same_upper" />
			<input>
				<port id="0" precision="FP32">
					<dim>1</dim>
					<dim>32</dim>
					<dim>768</dim>
					<dim>768</dim>
				</port>
				<port id="1" precision="FP32">
					<dim>192</dim>
					<dim>32</dim>
					<dim>1</dim>
					<dim>1</dim>
				</port>
			</input>
			<output>
				<port id="2" precision="FP32">
					<dim>1</dim>
					<dim>192</dim>
					<dim>768</dim>
					<dim>768</dim>
				</port>
			</output>
		</layer>
		<layer id="82" name="data_add_7906979074" type="Const" version="opset1">
			<data element_type="f32" shape="1, 192, 1, 1" offset="62432" size="768" />
			<output>
				<port id="0" precision="FP32">
					<dim>1</dim>
					<dim>192</dim>
					<dim>1</dim>
					<dim>1</dim>
				</port>
			</output>
		</layer>
		<layer id="83" name="efficientnet-b6/blocks_3/tpu_batch_normalization/FusedBatchNormV3/variance/Fused_Add_" type="Add" version="opset1">
			<data auto_broadcast="numpy" />
			<input>
				<port id="0" precision="FP32">
					<dim>1</dim>
					<dim>192</dim>
					<dim>768</dim>
					<dim>768</dim>
				</port>
				<port id="1" precision="FP32">
					<dim>1</dim>
					<dim>192</dim>
					<dim>1</dim>
					<dim>1</dim>
				</port>
			</input>
			<output>
				<port id="2" precision="FP32" names="efficientnet-b6/blocks_3/mul:0,efficientnet-b6/blocks_3/tpu_batch_normalization/FusedBatchNormV3:0">
					<dim>1</dim>
					<dim>192</dim>
					<dim>768</dim>
					<dim>768</dim>
				</port>
			</output>
		</layer>
		<layer id="84" name="efficientnet-b6/blocks_3/mul_1" type="Swish" version="opset4">
			<input>
				<port id="0" precision="FP32">
					<dim>1</dim>
					<dim>192</dim>
					<dim>768</dim>
					<dim>768</dim>
				</port>
			</input>
			<output>
				<port id="1" precision="FP32" names="efficientnet-b6/blocks_3/IdentityN:0,efficientnet-b6/blocks_3/mul_1:0">
					<dim>1</dim>
					<dim>192</dim>
					<dim>768</dim>
					<dim>768</dim>
				</port>
			</output>
		</layer>
		<layer id="85" name="efficientnet-b6/blocks_3/tpu_batch_normalization_1/FusedBatchNormV3/mean/Fused_Mul__copy" type="Const" version="opset1">
			<data element_type="f32" shape="192, 1, 1, 3, 3" offset="63200" size="6912" />
			<output>
				<port id="0" precision="FP32" names="efficientnet-b6/blocks_3/depthwise_conv2d/depthwise/ReadVariableOp:0">
					<dim>192</dim>
					<dim>1</dim>
					<dim>1</dim>
					<dim>3</dim>
					<dim>3</dim>
				</port>
			</output>
		</layer>
		<layer id="86" name="efficientnet-b6/blocks_3/depthwise_conv2d/depthwise" type="GroupConvolution" version="opset1">
			<data strides="2, 2" pads_begin="0, 0" pads_end="0, 0" dilations="1, 1" auto_pad="same_upper" />
			<input>
				<port id="0" precision="FP32">
					<dim>1</dim>
					<dim>192</dim>
					<dim>768</dim>
					<dim>768</dim>
				</port>
				<port id="1" precision="FP32">
					<dim>192</dim>
					<dim>1</dim>
					<dim>1</dim>
					<dim>3</dim>
					<dim>3</dim>
				</port>
			</input>
			<output>
				<port id="2" precision="FP32">
					<dim>1</dim>
					<dim>192</dim>
					<dim>384</dim>
					<dim>384</dim>
				</port>
			</output>
		</layer>
		<layer id="87" name="data_add_7907779082" type="Const" version="opset1">
			<data element_type="f32" shape="1, 192, 1, 1" offset="70112" size="768" />
			<output>
				<port id="0" precision="FP32">
					<dim>1</dim>
					<dim>192</dim>
					<dim>1</dim>
					<dim>1</dim>
				</port>
			</output>
		</layer>
		<layer id="88" name="efficientnet-b6/blocks_3/tpu_batch_normalization_1/FusedBatchNormV3/variance/Fused_Add_" type="Add" version="opset1">
			<data auto_broadcast="numpy" />
			<input>
				<port id="0" precision="FP32">
					<dim>1</dim>
					<dim>192</dim>
					<dim>384</dim>
					<dim>384</dim>
				</port>
				<port id="1" precision="FP32">
					<dim>1</dim>
					<dim>192</dim>
					<dim>1</dim>
					<dim>1</dim>
				</port>
			</input>
			<output>
				<port id="2" precision="FP32" names="efficientnet-b6/blocks_3/mul_2:0,efficientnet-b6/blocks_3/tpu_batch_normalization_1/FusedBatchNormV3:0">
					<dim>1</dim>
					<dim>192</dim>
					<dim>384</dim>
					<dim>384</dim>
				</port>
			</output>
		</layer>
		<layer id="89" name="efficientnet-b6/blocks_3/mul_3" type="Swish" version="opset4">
			<input>
				<port id="0" precision="FP32">
					<dim>1</dim>
					<dim>192</dim>
					<dim>384</dim>
					<dim>384</dim>
				</port>
			</input>
			<output>
				<port id="1" precision="FP32" names="efficientnet-b6/blocks_3/IdentityN_1:0,efficientnet-b6/blocks_3/mul_3:0">
					<dim>1</dim>
					<dim>192</dim>
					<dim>384</dim>
					<dim>384</dim>
				</port>
			</output>
		</layer>
		<layer id="90" name="105222149653" type="Const" version="opset1">
			<data element_type="i64" shape="2" offset="8568" size="16" />
			<output>
				<port id="0" precision="I64">
					<dim>2</dim>
				</port>
			</output>
		</layer>
		<layer id="91" name="efficientnet-b6/blocks_3/se/Mean" type="ReduceMean" version="opset1">
			<data keep_dims="true" />
			<input>
				<port id="0" precision="FP32">
					<dim>1</dim>
					<dim>192</dim>
					<dim>384</dim>
					<dim>384</dim>
				</port>
				<port id="1" precision="I64">
					<dim>2</dim>
				</port>
			</input>
			<output>
				<port id="2" precision="FP32" names="efficientnet-b6/blocks_3/se/Mean:0">
					<dim>1</dim>
					<dim>192</dim>
					<dim>1</dim>
					<dim>1</dim>
				</port>
			</output>
		</layer>
		<layer id="92" name="efficientnet-b6/blocks_3/se/conv2d/Conv2D/ReadVariableOp" type="Const" version="opset1">
			<data element_type="f32" shape="8, 192, 1, 1" offset="70880" size="6144" />
			<output>
				<port id="0" precision="FP32" names="efficientnet-b6/blocks_3/se/conv2d/Conv2D/ReadVariableOp:0">
					<dim>8</dim>
					<dim>192</dim>
					<dim>1</dim>
					<dim>1</dim>
				</port>
			</output>
		</layer>
		<layer id="93" name="efficientnet-b6/blocks_3/se/conv2d/Conv2D" type="Convolution" version="opset1">
			<data strides="1, 1" dilations="1, 1" pads_begin="0, 0" pads_end="0, 0" auto_pad="same_upper" />
			<input>
				<port id="0" precision="FP32">
					<dim>1</dim>
					<dim>192</dim>
					<dim>1</dim>
					<dim>1</dim>
				</port>
				<port id="1" precision="FP32">
					<dim>8</dim>
					<dim>192</dim>
					<dim>1</dim>
					<dim>1</dim>
				</port>
			</input>
			<output>
				<port id="2" precision="FP32" names="efficientnet-b6/blocks_3/se/conv2d/Conv2D:0">
					<dim>1</dim>
					<dim>8</dim>
					<dim>1</dim>
					<dim>1</dim>
				</port>
			</output>
		</layer>
		<layer id="94" name="efficientnet-b6/blocks_3/se/conv2d/BiasAdd/ReadVariableOp" type="Const" version="opset1">
			<data element_type="f32" shape="1, 8, 1, 1" offset="77024" size="32" />
			<output>
				<port id="0" precision="FP32" names="efficientnet-b6/blocks_3/se/conv2d/BiasAdd/ReadVariableOp:0">
					<dim>1</dim>
					<dim>8</dim>
					<dim>1</dim>
					<dim>1</dim>
				</port>
			</output>
		</layer>
		<layer id="95" name="efficientnet-b6/blocks_3/se/conv2d/BiasAdd/Add" type="Add" version="opset1">
			<data auto_broadcast="numpy" />
			<input>
				<port id="0" precision="FP32">
					<dim>1</dim>
					<dim>8</dim>
					<dim>1</dim>
					<dim>1</dim>
				</port>
				<port id="1" precision="FP32">
					<dim>1</dim>
					<dim>8</dim>
					<dim>1</dim>
					<dim>1</dim>
				</port>
			</input>
			<output>
				<port id="2" precision="FP32" names="efficientnet-b6/blocks_3/se/conv2d/BiasAdd:0,efficientnet-b6/blocks_3/se/mul:0">
					<dim>1</dim>
					<dim>8</dim>
					<dim>1</dim>
					<dim>1</dim>
				</port>
			</output>
		</layer>
		<layer id="96" name="efficientnet-b6/blocks_3/se/mul_1" type="Swish" version="opset4">
			<input>
				<port id="0" precision="FP32">
					<dim>1</dim>
					<dim>8</dim>
					<dim>1</dim>
					<dim>1</dim>
				</port>
			</input>
			<output>
				<port id="1" precision="FP32" names="efficientnet-b6/blocks_3/se/IdentityN:0,efficientnet-b6/blocks_3/se/mul_1:0">
					<dim>1</dim>
					<dim>8</dim>
					<dim>1</dim>
					<dim>1</dim>
				</port>
			</output>
		</layer>
		<layer id="97" name="efficientnet-b6/blocks_3/se/conv2d_1/Conv2D/ReadVariableOp" type="Const" version="opset1">
			<data element_type="f32" shape="192, 8, 1, 1" offset="77056" size="6144" />
			<output>
				<port id="0" precision="FP32" names="efficientnet-b6/blocks_3/se/conv2d_1/Conv2D/ReadVariableOp:0">
					<dim>192</dim>
					<dim>8</dim>
					<dim>1</dim>
					<dim>1</dim>
				</port>
			</output>
		</layer>
		<layer id="98" name="efficientnet-b6/blocks_3/se/conv2d_1/Conv2D" type="Convolution" version="opset1">
			<data strides="1, 1" dilations="1, 1" pads_begin="0, 0" pads_end="0, 0" auto_pad="same_upper" />
			<input>
				<port id="0" precision="FP32">
					<dim>1</dim>
					<dim>8</dim>
					<dim>1</dim>
					<dim>1</dim>
				</port>
				<port id="1" precision="FP32">
					<dim>192</dim>
					<dim>8</dim>
					<dim>1</dim>
					<dim>1</dim>
				</port>
			</input>
			<output>
				<port id="2" precision="FP32" names="efficientnet-b6/blocks_3/se/conv2d_1/Conv2D:0">
					<dim>1</dim>
					<dim>192</dim>
					<dim>1</dim>
					<dim>1</dim>
				</port>
			</output>
		</layer>
		<layer id="99" name="efficientnet-b6/blocks_3/se/conv2d_1/BiasAdd/ReadVariableOp" type="Const" version="opset1">
			<data element_type="f32" shape="1, 192, 1, 1" offset="83200" size="768" />
			<output>
				<port id="0" precision="FP32" names="efficientnet-b6/blocks_3/se/conv2d_1/BiasAdd/ReadVariableOp:0">
					<dim>1</dim>
					<dim>192</dim>
					<dim>1</dim>
					<dim>1</dim>
				</port>
			</output>
		</layer>
		<layer id="100" name="efficientnet-b6/blocks_3/se/conv2d_1/BiasAdd/Add" type="Add" version="opset1">
			<data auto_broadcast="numpy" />
			<input>
				<port id="0" precision="FP32">
					<dim>1</dim>
					<dim>192</dim>
					<dim>1</dim>
					<dim>1</dim>
				</port>
				<port id="1" precision="FP32">
					<dim>1</dim>
					<dim>192</dim>
					<dim>1</dim>
					<dim>1</dim>
				</port>
			</input>
			<output>
				<port id="2" precision="FP32" names="efficientnet-b6/blocks_3/se/conv2d_1/BiasAdd:0">
					<dim>1</dim>
					<dim>192</dim>
					<dim>1</dim>
					<dim>1</dim>
				</port>
			</output>
		</layer>
		<layer id="101" name="efficientnet-b6/blocks_3/se/Sigmoid_1" type="Sigmoid" version="opset1">
			<input>
				<port id="0" precision="FP32">
					<dim>1</dim>
					<dim>192</dim>
					<dim>1</dim>
					<dim>1</dim>
				</port>
			</input>
			<output>
				<port id="1" precision="FP32" names="efficientnet-b6/blocks_3/se/Sigmoid_1:0">
					<dim>1</dim>
					<dim>192</dim>
					<dim>1</dim>
					<dim>1</dim>
				</port>
			</output>
		</layer>
		<layer id="102" name="efficientnet-b6/blocks_3/se/mul_2" type="Multiply" version="opset1">
			<data auto_broadcast="numpy" />
			<input>
				<port id="0" precision="FP32">
					<dim>1</dim>
					<dim>192</dim>
					<dim>1</dim>
					<dim>1</dim>
				</port>
				<port id="1" precision="FP32">
					<dim>1</dim>
					<dim>192</dim>
					<dim>384</dim>
					<dim>384</dim>
				</port>
			</input>
			<output>
				<port id="2" precision="FP32" names="efficientnet-b6/blocks_3/se/mul_2:0">
					<dim>1</dim>
					<dim>192</dim>
					<dim>384</dim>
					<dim>384</dim>
				</port>
			</output>
		</layer>
		<layer id="103" name="efficientnet-b6/blocks_3/tpu_batch_normalization_2/FusedBatchNormV3/mean/Fused_Mul__copy" type="Const" version="opset1">
			<data element_type="f32" shape="40, 192, 1, 1" offset="83968" size="30720" />
			<output>
				<port id="0" precision="FP32" names="efficientnet-b6/blocks_3/conv2d_1/Conv2D/ReadVariableOp:0">
					<dim>40</dim>
					<dim>192</dim>
					<dim>1</dim>
					<dim>1</dim>
				</port>
			</output>
		</layer>
		<layer id="104" name="efficientnet-b6/blocks_3/conv2d_1/Conv2D" type="Convolution" version="opset1">
			<data strides="1, 1" dilations="1, 1" pads_begin="0, 0" pads_end="0, 0" auto_pad="same_upper" />
			<input>
				<port id="0" precision="FP32">
					<dim>1</dim>
					<dim>192</dim>
					<dim>384</dim>
					<dim>384</dim>
				</port>
				<port id="1" precision="FP32">
					<dim>40</dim>
					<dim>192</dim>
					<dim>1</dim>
					<dim>1</dim>
				</port>
			</input>
			<output>
				<port id="2" precision="FP32">
					<dim>1</dim>
					<dim>40</dim>
					<dim>384</dim>
					<dim>384</dim>
				</port>
			</output>
		</layer>
		<layer id="105" name="data_add_7908579090" type="Const" version="opset1">
			<data element_type="f32" shape="1, 40, 1, 1" offset="114688" size="160" />
			<output>
				<port id="0" precision="FP32">
					<dim>1</dim>
					<dim>40</dim>
					<dim>1</dim>
					<dim>1</dim>
				</port>
			</output>
		</layer>
		<layer id="106" name="efficientnet-b6/blocks_3/tpu_batch_normalization_2/FusedBatchNormV3/variance/Fused_Add_" type="Add" version="opset1">
			<data auto_broadcast="numpy" />
			<input>
				<port id="0" precision="FP32">
					<dim>1</dim>
					<dim>40</dim>
					<dim>384</dim>
					<dim>384</dim>
				</port>
				<port id="1" precision="FP32">
					<dim>1</dim>
					<dim>40</dim>
					<dim>1</dim>
					<dim>1</dim>
				</port>
			</input>
			<output>
				<port id="2" precision="FP32" names="efficientnet-b6/blocks_3/Identity_2:0,efficientnet-b6/blocks_3/tpu_batch_normalization_2/FusedBatchNormV3:0">
					<dim>1</dim>
					<dim>40</dim>
					<dim>384</dim>
					<dim>384</dim>
				</port>
			</output>
		</layer>
		<layer id="107" name="efficientnet-b6/blocks_4/tpu_batch_normalization/FusedBatchNormV3/mean/Fused_Mul__copy" type="Const" version="opset1">
			<data element_type="f32" shape="240, 40, 1, 1" offset="114848" size="38400" />
			<output>
				<port id="0" precision="FP32" names="efficientnet-b6/blocks_4/conv2d/Conv2D/ReadVariableOp:0">
					<dim>240</dim>
					<dim>40</dim>
					<dim>1</dim>
					<dim>1</dim>
				</port>
			</output>
		</layer>
		<layer id="108" name="efficientnet-b6/blocks_4/conv2d/Conv2D" type="Convolution" version="opset1">
			<data strides="1, 1" dilations="1, 1" pads_begin="0, 0" pads_end="0, 0" auto_pad="same_upper" />
			<input>
				<port id="0" precision="FP32">
					<dim>1</dim>
					<dim>40</dim>
					<dim>384</dim>
					<dim>384</dim>
				</port>
				<port id="1" precision="FP32">
					<dim>240</dim>
					<dim>40</dim>
					<dim>1</dim>
					<dim>1</dim>
				</port>
			</input>
			<output>
				<port id="2" precision="FP32">
					<dim>1</dim>
					<dim>240</dim>
					<dim>384</dim>
					<dim>384</dim>
				</port>
			</output>
		</layer>
		<layer id="109" name="data_add_7909379098" type="Const" version="opset1">
			<data element_type="f32" shape="1, 240, 1, 1" offset="153248" size="960" />
			<output>
				<port id="0" precision="FP32">
					<dim>1</dim>
					<dim>240</dim>
					<dim>1</dim>
					<dim>1</dim>
				</port>
			</output>
		</layer>
		<layer id="110" name="efficientnet-b6/blocks_4/tpu_batch_normalization/FusedBatchNormV3/variance/Fused_Add_" type="Add" version="opset1">
			<data auto_broadcast="numpy" />
			<input>
				<port id="0" precision="FP32">
					<dim>1</dim>
					<dim>240</dim>
					<dim>384</dim>
					<dim>384</dim>
				</port>
				<port id="1" precision="FP32">
					<dim>1</dim>
					<dim>240</dim>
					<dim>1</dim>
					<dim>1</dim>
				</port>
			</input>
			<output>
				<port id="2" precision="FP32" names="efficientnet-b6/blocks_4/mul:0,efficientnet-b6/blocks_4/tpu_batch_normalization/FusedBatchNormV3:0">
					<dim>1</dim>
					<dim>240</dim>
					<dim>384</dim>
					<dim>384</dim>
				</port>
			</output>
		</layer>
		<layer id="111" name="efficientnet-b6/blocks_4/mul_1" type="Swish" version="opset4">
			<input>
				<port id="0" precision="FP32">
					<dim>1</dim>
					<dim>240</dim>
					<dim>384</dim>
					<dim>384</dim>
				</port>
			</input>
			<output>
				<port id="1" precision="FP32" names="efficientnet-b6/blocks_4/IdentityN:0,efficientnet-b6/blocks_4/mul_1:0">
					<dim>1</dim>
					<dim>240</dim>
					<dim>384</dim>
					<dim>384</dim>
				</port>
			</output>
		</layer>
		<layer id="112" name="efficientnet-b6/blocks_4/tpu_batch_normalization_1/FusedBatchNormV3/mean/Fused_Mul__copy" type="Const" version="opset1">
			<data element_type="f32" shape="240, 1, 1, 3, 3" offset="154208" size="8640" />
			<output>
				<port id="0" precision="FP32" names="efficientnet-b6/blocks_4/depthwise_conv2d/depthwise/ReadVariableOp:0">
					<dim>240</dim>
					<dim>1</dim>
					<dim>1</dim>
					<dim>3</dim>
					<dim>3</dim>
				</port>
			</output>
		</layer>
		<layer id="113" name="efficientnet-b6/blocks_4/depthwise_conv2d/depthwise" type="GroupConvolution" version="opset1">
			<data strides="1, 1" pads_begin="0, 0" pads_end="0, 0" dilations="1, 1" auto_pad="same_upper" />
			<input>
				<port id="0" precision="FP32">
					<dim>1</dim>
					<dim>240</dim>
					<dim>384</dim>
					<dim>384</dim>
				</port>
				<port id="1" precision="FP32">
					<dim>240</dim>
					<dim>1</dim>
					<dim>1</dim>
					<dim>3</dim>
					<dim>3</dim>
				</port>
			</input>
			<output>
				<port id="2" precision="FP32">
					<dim>1</dim>
					<dim>240</dim>
					<dim>384</dim>
					<dim>384</dim>
				</port>
			</output>
		</layer>
		<layer id="114" name="data_add_7910179106" type="Const" version="opset1">
			<data element_type="f32" shape="1, 240, 1, 1" offset="162848" size="960" />
			<output>
				<port id="0" precision="FP32">
					<dim>1</dim>
					<dim>240</dim>
					<dim>1</dim>
					<dim>1</dim>
				</port>
			</output>
		</layer>
		<layer id="115" name="efficientnet-b6/blocks_4/tpu_batch_normalization_1/FusedBatchNormV3/variance/Fused_Add_" type="Add" version="opset1">
			<data auto_broadcast="numpy" />
			<input>
				<port id="0" precision="FP32">
					<dim>1</dim>
					<dim>240</dim>
					<dim>384</dim>
					<dim>384</dim>
				</port>
				<port id="1" precision="FP32">
					<dim>1</dim>
					<dim>240</dim>
					<dim>1</dim>
					<dim>1</dim>
				</port>
			</input>
			<output>
				<port id="2" precision="FP32" names="efficientnet-b6/blocks_4/mul_2:0,efficientnet-b6/blocks_4/tpu_batch_normalization_1/FusedBatchNormV3:0">
					<dim>1</dim>
					<dim>240</dim>
					<dim>384</dim>
					<dim>384</dim>
				</port>
			</output>
		</layer>
		<layer id="116" name="efficientnet-b6/blocks_4/mul_3" type="Swish" version="opset4">
			<input>
				<port id="0" precision="FP32">
					<dim>1</dim>
					<dim>240</dim>
					<dim>384</dim>
					<dim>384</dim>
				</port>
			</input>
			<output>
				<port id="1" precision="FP32" names="efficientnet-b6/blocks_4/IdentityN_1:0,efficientnet-b6/blocks_4/mul_3:0">
					<dim>1</dim>
					<dim>240</dim>
					<dim>384</dim>
					<dim>384</dim>
				</port>
			</output>
		</layer>
		<layer id="117" name="105248151672" type="Const" version="opset1">
			<data element_type="i64" shape="2" offset="8568" size="16" />
			<output>
				<port id="0" precision="I64">
					<dim>2</dim>
				</port>
			</output>
		</layer>
		<layer id="118" name="efficientnet-b6/blocks_4/se/Mean" type="ReduceMean" version="opset1">
			<data keep_dims="true" />
			<input>
				<port id="0" precision="FP32">
					<dim>1</dim>
					<dim>240</dim>
					<dim>384</dim>
					<dim>384</dim>
				</port>
				<port id="1" precision="I64">
					<dim>2</dim>
				</port>
			</input>
			<output>
				<port id="2" precision="FP32" names="efficientnet-b6/blocks_4/se/Mean:0">
					<dim>1</dim>
					<dim>240</dim>
					<dim>1</dim>
					<dim>1</dim>
				</port>
			</output>
		</layer>
		<layer id="119" name="efficientnet-b6/blocks_4/se/conv2d/Conv2D/ReadVariableOp" type="Const" version="opset1">
			<data element_type="f32" shape="10, 240, 1, 1" offset="163808" size="9600" />
			<output>
				<port id="0" precision="FP32" names="efficientnet-b6/blocks_4/se/conv2d/Conv2D/ReadVariableOp:0">
					<dim>10</dim>
					<dim>240</dim>
					<dim>1</dim>
					<dim>1</dim>
				</port>
			</output>
		</layer>
		<layer id="120" name="efficientnet-b6/blocks_4/se/conv2d/Conv2D" type="Convolution" version="opset1">
			<data strides="1, 1" dilations="1, 1" pads_begin="0, 0" pads_end="0, 0" auto_pad="same_upper" />
			<input>
				<port id="0" precision="FP32">
					<dim>1</dim>
					<dim>240</dim>
					<dim>1</dim>
					<dim>1</dim>
				</port>
				<port id="1" precision="FP32">
					<dim>10</dim>
					<dim>240</dim>
					<dim>1</dim>
					<dim>1</dim>
				</port>
			</input>
			<output>
				<port id="2" precision="FP32" names="efficientnet-b6/blocks_4/se/conv2d/Conv2D:0">
					<dim>1</dim>
					<dim>10</dim>
					<dim>1</dim>
					<dim>1</dim>
				</port>
			</output>
		</layer>
		<layer id="121" name="efficientnet-b6/blocks_4/se/conv2d/BiasAdd/ReadVariableOp" type="Const" version="opset1">
			<data element_type="f32" shape="1, 10, 1, 1" offset="173408" size="40" />
			<output>
				<port id="0" precision="FP32" names="efficientnet-b6/blocks_4/se/conv2d/BiasAdd/ReadVariableOp:0">
					<dim>1</dim>
					<dim>10</dim>
					<dim>1</dim>
					<dim>1</dim>
				</port>
			</output>
		</layer>
		<layer id="122" name="efficientnet-b6/blocks_4/se/conv2d/BiasAdd/Add" type="Add" version="opset1">
			<data auto_broadcast="numpy" />
			<input>
				<port id="0" precision="FP32">
					<dim>1</dim>
					<dim>10</dim>
					<dim>1</dim>
					<dim>1</dim>
				</port>
				<port id="1" precision="FP32">
					<dim>1</dim>
					<dim>10</dim>
					<dim>1</dim>
					<dim>1</dim>
				</port>
			</input>
			<output>
				<port id="2" precision="FP32" names="efficientnet-b6/blocks_4/se/conv2d/BiasAdd:0,efficientnet-b6/blocks_4/se/mul:0">
					<dim>1</dim>
					<dim>10</dim>
					<dim>1</dim>
					<dim>1</dim>
				</port>
			</output>
		</layer>
		<layer id="123" name="efficientnet-b6/blocks_4/se/mul_1" type="Swish" version="opset4">
			<input>
				<port id="0" precision="FP32">
					<dim>1</dim>
					<dim>10</dim>
					<dim>1</dim>
					<dim>1</dim>
				</port>
			</input>
			<output>
				<port id="1" precision="FP32" names="efficientnet-b6/blocks_4/se/IdentityN:0,efficientnet-b6/blocks_4/se/mul_1:0">
					<dim>1</dim>
					<dim>10</dim>
					<dim>1</dim>
					<dim>1</dim>
				</port>
			</output>
		</layer>
		<layer id="124" name="efficientnet-b6/blocks_4/se/conv2d_1/Conv2D/ReadVariableOp" type="Const" version="opset1">
			<data element_type="f32" shape="240, 10, 1, 1" offset="173448" size="9600" />
			<output>
				<port id="0" precision="FP32" names="efficientnet-b6/blocks_4/se/conv2d_1/Conv2D/ReadVariableOp:0">
					<dim>240</dim>
					<dim>10</dim>
					<dim>1</dim>
					<dim>1</dim>
				</port>
			</output>
		</layer>
		<layer id="125" name="efficientnet-b6/blocks_4/se/conv2d_1/Conv2D" type="Convolution" version="opset1">
			<data strides="1, 1" dilations="1, 1" pads_begin="0, 0" pads_end="0, 0" auto_pad="same_upper" />
			<input>
				<port id="0" precision="FP32">
					<dim>1</dim>
					<dim>10</dim>
					<dim>1</dim>
					<dim>1</dim>
				</port>
				<port id="1" precision="FP32">
					<dim>240</dim>
					<dim>10</dim>
					<dim>1</dim>
					<dim>1</dim>
				</port>
			</input>
			<output>
				<port id="2" precision="FP32" names="efficientnet-b6/blocks_4/se/conv2d_1/Conv2D:0">
					<dim>1</dim>
					<dim>240</dim>
					<dim>1</dim>
					<dim>1</dim>
				</port>
			</output>
		</layer>
		<layer id="126" name="efficientnet-b6/blocks_4/se/conv2d_1/BiasAdd/ReadVariableOp" type="Const" version="opset1">
			<data element_type="f32" shape="1, 240, 1, 1" offset="183048" size="960" />
			<output>
				<port id="0" precision="FP32" names="efficientnet-b6/blocks_4/se/conv2d_1/BiasAdd/ReadVariableOp:0">
					<dim>1</dim>
					<dim>240</dim>
					<dim>1</dim>
					<dim>1</dim>
				</port>
			</output>
		</layer>
		<layer id="127" name="efficientnet-b6/blocks_4/se/conv2d_1/BiasAdd/Add" type="Add" version="opset1">
			<data auto_broadcast="numpy" />
			<input>
				<port id="0" precision="FP32">
					<dim>1</dim>
					<dim>240</dim>
					<dim>1</dim>
					<dim>1</dim>
				</port>
				<port id="1" precision="FP32">
					<dim>1</dim>
					<dim>240</dim>
					<dim>1</dim>
					<dim>1</dim>
				</port>
			</input>
			<output>
				<port id="2" precision="FP32" names="efficientnet-b6/blocks_4/se/conv2d_1/BiasAdd:0">
					<dim>1</dim>
					<dim>240</dim>
					<dim>1</dim>
					<dim>1</dim>
				</port>
			</output>
		</layer>
		<layer id="128" name="efficientnet-b6/blocks_4/se/Sigmoid_1" type="Sigmoid" version="opset1">
			<input>
				<port id="0" precision="FP32">
					<dim>1</dim>
					<dim>240</dim>
					<dim>1</dim>
					<dim>1</dim>
				</port>
			</input>
			<output>
				<port id="1" precision="FP32" names="efficientnet-b6/blocks_4/se/Sigmoid_1:0">
					<dim>1</dim>
					<dim>240</dim>
					<dim>1</dim>
					<dim>1</dim>
				</port>
			</output>
		</layer>
		<layer id="129" name="efficientnet-b6/blocks_4/se/mul_2" type="Multiply" version="opset1">
			<data auto_broadcast="numpy" />
			<input>
				<port id="0" precision="FP32">
					<dim>1</dim>
					<dim>240</dim>
					<dim>1</dim>
					<dim>1</dim>
				</port>
				<port id="1" precision="FP32">
					<dim>1</dim>
					<dim>240</dim>
					<dim>384</dim>
					<dim>384</dim>
				</port>
			</input>
			<output>
				<port id="2" precision="FP32" names="efficientnet-b6/blocks_4/se/mul_2:0">
					<dim>1</dim>
					<dim>240</dim>
					<dim>384</dim>
					<dim>384</dim>
				</port>
			</output>
		</layer>
		<layer id="130" name="efficientnet-b6/blocks_4/tpu_batch_normalization_2/FusedBatchNormV3/mean/Fused_Mul__copy" type="Const" version="opset1">
			<data element_type="f32" shape="40, 240, 1, 1" offset="184008" size="38400" />
			<output>
				<port id="0" precision="FP32" names="efficientnet-b6/blocks_4/conv2d_1/Conv2D/ReadVariableOp:0">
					<dim>40</dim>
					<dim>240</dim>
					<dim>1</dim>
					<dim>1</dim>
				</port>
			</output>
		</layer>
		<layer id="131" name="efficientnet-b6/blocks_4/conv2d_1/Conv2D" type="Convolution" version="opset1">
			<data strides="1, 1" dilations="1, 1" pads_begin="0, 0" pads_end="0, 0" auto_pad="same_upper" />
			<input>
				<port id="0" precision="FP32">
					<dim>1</dim>
					<dim>240</dim>
					<dim>384</dim>
					<dim>384</dim>
				</port>
				<port id="1" precision="FP32">
					<dim>40</dim>
					<dim>240</dim>
					<dim>1</dim>
					<dim>1</dim>
				</port>
			</input>
			<output>
				<port id="2" precision="FP32">
					<dim>1</dim>
					<dim>40</dim>
					<dim>384</dim>
					<dim>384</dim>
				</port>
			</output>
		</layer>
		<layer id="132" name="data_add_7910979114" type="Const" version="opset1">
			<data element_type="f32" shape="1, 40, 1, 1" offset="222408" size="160" />
			<output>
				<port id="0" precision="FP32">
					<dim>1</dim>
					<dim>40</dim>
					<dim>1</dim>
					<dim>1</dim>
				</port>
			</output>
		</layer>
		<layer id="133" name="efficientnet-b6/blocks_4/tpu_batch_normalization_2/FusedBatchNormV3/variance/Fused_Add_" type="Add" version="opset1">
			<data auto_broadcast="numpy" />
			<input>
				<port id="0" precision="FP32">
					<dim>1</dim>
					<dim>40</dim>
					<dim>384</dim>
					<dim>384</dim>
				</port>
				<port id="1" precision="FP32">
					<dim>1</dim>
					<dim>40</dim>
					<dim>1</dim>
					<dim>1</dim>
				</port>
			</input>
			<output>
				<port id="2" precision="FP32" names="efficientnet-b6/blocks_4/Identity_2:0,efficientnet-b6/blocks_4/tpu_batch_normalization_2/FusedBatchNormV3:0">
					<dim>1</dim>
					<dim>40</dim>
					<dim>384</dim>
					<dim>384</dim>
				</port>
			</output>
		</layer>
		<layer id="134" name="efficientnet-b6/blocks_4/Add" type="Add" version="opset1">
			<data auto_broadcast="numpy" />
			<input>
				<port id="0" precision="FP32">
					<dim>1</dim>
					<dim>40</dim>
					<dim>384</dim>
					<dim>384</dim>
				</port>
				<port id="1" precision="FP32">
					<dim>1</dim>
					<dim>40</dim>
					<dim>384</dim>
					<dim>384</dim>
				</port>
			</input>
			<output>
				<port id="2" precision="FP32" names="efficientnet-b6/blocks_4/Add:0">
					<dim>1</dim>
					<dim>40</dim>
					<dim>384</dim>
					<dim>384</dim>
				</port>
			</output>
		</layer>
		<layer id="135" name="efficientnet-b6/blocks_5/tpu_batch_normalization/FusedBatchNormV3/mean/Fused_Mul__copy" type="Const" version="opset1">
			<data element_type="f32" shape="240, 40, 1, 1" offset="222568" size="38400" />
			<output>
				<port id="0" precision="FP32" names="efficientnet-b6/blocks_5/conv2d/Conv2D/ReadVariableOp:0">
					<dim>240</dim>
					<dim>40</dim>
					<dim>1</dim>
					<dim>1</dim>
				</port>
			</output>
		</layer>
		<layer id="136" name="efficientnet-b6/blocks_5/conv2d/Conv2D" type="Convolution" version="opset1">
			<data strides="1, 1" dilations="1, 1" pads_begin="0, 0" pads_end="0, 0" auto_pad="same_upper" />
			<input>
				<port id="0" precision="FP32">
					<dim>1</dim>
					<dim>40</dim>
					<dim>384</dim>
					<dim>384</dim>
				</port>
				<port id="1" precision="FP32">
					<dim>240</dim>
					<dim>40</dim>
					<dim>1</dim>
					<dim>1</dim>
				</port>
			</input>
			<output>
				<port id="2" precision="FP32">
					<dim>1</dim>
					<dim>240</dim>
					<dim>384</dim>
					<dim>384</dim>
				</port>
			</output>
		</layer>
		<layer id="137" name="data_add_7911779122" type="Const" version="opset1">
			<data element_type="f32" shape="1, 240, 1, 1" offset="260968" size="960" />
			<output>
				<port id="0" precision="FP32">
					<dim>1</dim>
					<dim>240</dim>
					<dim>1</dim>
					<dim>1</dim>
				</port>
			</output>
		</layer>
		<layer id="138" name="efficientnet-b6/blocks_5/tpu_batch_normalization/FusedBatchNormV3/variance/Fused_Add_" type="Add" version="opset1">
			<data auto_broadcast="numpy" />
			<input>
				<port id="0" precision="FP32">
					<dim>1</dim>
					<dim>240</dim>
					<dim>384</dim>
					<dim>384</dim>
				</port>
				<port id="1" precision="FP32">
					<dim>1</dim>
					<dim>240</dim>
					<dim>1</dim>
					<dim>1</dim>
				</port>
			</input>
			<output>
				<port id="2" precision="FP32" names="efficientnet-b6/blocks_5/mul:0,efficientnet-b6/blocks_5/tpu_batch_normalization/FusedBatchNormV3:0">
					<dim>1</dim>
					<dim>240</dim>
					<dim>384</dim>
					<dim>384</dim>
				</port>
			</output>
		</layer>
		<layer id="139" name="efficientnet-b6/blocks_5/mul_1" type="Swish" version="opset4">
			<input>
				<port id="0" precision="FP32">
					<dim>1</dim>
					<dim>240</dim>
					<dim>384</dim>
					<dim>384</dim>
				</port>
			</input>
			<output>
				<port id="1" precision="FP32" names="efficientnet-b6/blocks_5/IdentityN:0,efficientnet-b6/blocks_5/mul_1:0">
					<dim>1</dim>
					<dim>240</dim>
					<dim>384</dim>
					<dim>384</dim>
				</port>
			</output>
		</layer>
		<layer id="140" name="efficientnet-b6/blocks_5/tpu_batch_normalization_1/FusedBatchNormV3/mean/Fused_Mul__copy" type="Const" version="opset1">
			<data element_type="f32" shape="240, 1, 1, 3, 3" offset="261928" size="8640" />
			<output>
				<port id="0" precision="FP32" names="efficientnet-b6/blocks_5/depthwise_conv2d/depthwise/ReadVariableOp:0">
					<dim>240</dim>
					<dim>1</dim>
					<dim>1</dim>
					<dim>3</dim>
					<dim>3</dim>
				</port>
			</output>
		</layer>
		<layer id="141" name="efficientnet-b6/blocks_5/depthwise_conv2d/depthwise" type="GroupConvolution" version="opset1">
			<data strides="1, 1" pads_begin="0, 0" pads_end="0, 0" dilations="1, 1" auto_pad="same_upper" />
			<input>
				<port id="0" precision="FP32">
					<dim>1</dim>
					<dim>240</dim>
					<dim>384</dim>
					<dim>384</dim>
				</port>
				<port id="1" precision="FP32">
					<dim>240</dim>
					<dim>1</dim>
					<dim>1</dim>
					<dim>3</dim>
					<dim>3</dim>
				</port>
			</input>
			<output>
				<port id="2" precision="FP32">
					<dim>1</dim>
					<dim>240</dim>
					<dim>384</dim>
					<dim>384</dim>
				</port>
			</output>
		</layer>
		<layer id="142" name="data_add_7912579130" type="Const" version="opset1">
			<data element_type="f32" shape="1, 240, 1, 1" offset="270568" size="960" />
			<output>
				<port id="0" precision="FP32">
					<dim>1</dim>
					<dim>240</dim>
					<dim>1</dim>
					<dim>1</dim>
				</port>
			</output>
		</layer>
		<layer id="143" name="efficientnet-b6/blocks_5/tpu_batch_normalization_1/FusedBatchNormV3/variance/Fused_Add_" type="Add" version="opset1">
			<data auto_broadcast="numpy" />
			<input>
				<port id="0" precision="FP32">
					<dim>1</dim>
					<dim>240</dim>
					<dim>384</dim>
					<dim>384</dim>
				</port>
				<port id="1" precision="FP32">
					<dim>1</dim>
					<dim>240</dim>
					<dim>1</dim>
					<dim>1</dim>
				</port>
			</input>
			<output>
				<port id="2" precision="FP32" names="efficientnet-b6/blocks_5/mul_2:0,efficientnet-b6/blocks_5/tpu_batch_normalization_1/FusedBatchNormV3:0">
					<dim>1</dim>
					<dim>240</dim>
					<dim>384</dim>
					<dim>384</dim>
				</port>
			</output>
		</layer>
		<layer id="144" name="efficientnet-b6/blocks_5/mul_3" type="Swish" version="opset4">
			<input>
				<port id="0" precision="FP32">
					<dim>1</dim>
					<dim>240</dim>
					<dim>384</dim>
					<dim>384</dim>
				</port>
			</input>
			<output>
				<port id="1" precision="FP32" names="efficientnet-b6/blocks_5/IdentityN_1:0,efficientnet-b6/blocks_5/mul_3:0">
					<dim>1</dim>
					<dim>240</dim>
					<dim>384</dim>
					<dim>384</dim>
				</port>
			</output>
		</layer>
		<layer id="145" name="105274150673" type="Const" version="opset1">
			<data element_type="i64" shape="2" offset="8568" size="16" />
			<output>
				<port id="0" precision="I64">
					<dim>2</dim>
				</port>
			</output>
		</layer>
		<layer id="146" name="efficientnet-b6/blocks_5/se/Mean" type="ReduceMean" version="opset1">
			<data keep_dims="true" />
			<input>
				<port id="0" precision="FP32">
					<dim>1</dim>
					<dim>240</dim>
					<dim>384</dim>
					<dim>384</dim>
				</port>
				<port id="1" precision="I64">
					<dim>2</dim>
				</port>
			</input>
			<output>
				<port id="2" precision="FP32" names="efficientnet-b6/blocks_5/se/Mean:0">
					<dim>1</dim>
					<dim>240</dim>
					<dim>1</dim>
					<dim>1</dim>
				</port>
			</output>
		</layer>
		<layer id="147" name="efficientnet-b6/blocks_5/se/conv2d/Conv2D/ReadVariableOp" type="Const" version="opset1">
			<data element_type="f32" shape="10, 240, 1, 1" offset="271528" size="9600" />
			<output>
				<port id="0" precision="FP32" names="efficientnet-b6/blocks_5/se/conv2d/Conv2D/ReadVariableOp:0">
					<dim>10</dim>
					<dim>240</dim>
					<dim>1</dim>
					<dim>1</dim>
				</port>
			</output>
		</layer>
		<layer id="148" name="efficientnet-b6/blocks_5/se/conv2d/Conv2D" type="Convolution" version="opset1">
			<data strides="1, 1" dilations="1, 1" pads_begin="0, 0" pads_end="0, 0" auto_pad="same_upper" />
			<input>
				<port id="0" precision="FP32">
					<dim>1</dim>
					<dim>240</dim>
					<dim>1</dim>
					<dim>1</dim>
				</port>
				<port id="1" precision="FP32">
					<dim>10</dim>
					<dim>240</dim>
					<dim>1</dim>
					<dim>1</dim>
				</port>
			</input>
			<output>
				<port id="2" precision="FP32" names="efficientnet-b6/blocks_5/se/conv2d/Conv2D:0">
					<dim>1</dim>
					<dim>10</dim>
					<dim>1</dim>
					<dim>1</dim>
				</port>
			</output>
		</layer>
		<layer id="149" name="efficientnet-b6/blocks_5/se/conv2d/BiasAdd/ReadVariableOp" type="Const" version="opset1">
			<data element_type="f32" shape="1, 10, 1, 1" offset="281128" size="40" />
			<output>
				<port id="0" precision="FP32" names="efficientnet-b6/blocks_5/se/conv2d/BiasAdd/ReadVariableOp:0">
					<dim>1</dim>
					<dim>10</dim>
					<dim>1</dim>
					<dim>1</dim>
				</port>
			</output>
		</layer>
		<layer id="150" name="efficientnet-b6/blocks_5/se/conv2d/BiasAdd/Add" type="Add" version="opset1">
			<data auto_broadcast="numpy" />
			<input>
				<port id="0" precision="FP32">
					<dim>1</dim>
					<dim>10</dim>
					<dim>1</dim>
					<dim>1</dim>
				</port>
				<port id="1" precision="FP32">
					<dim>1</dim>
					<dim>10</dim>
					<dim>1</dim>
					<dim>1</dim>
				</port>
			</input>
			<output>
				<port id="2" precision="FP32" names="efficientnet-b6/blocks_5/se/conv2d/BiasAdd:0,efficientnet-b6/blocks_5/se/mul:0">
					<dim>1</dim>
					<dim>10</dim>
					<dim>1</dim>
					<dim>1</dim>
				</port>
			</output>
		</layer>
		<layer id="151" name="efficientnet-b6/blocks_5/se/mul_1" type="Swish" version="opset4">
			<input>
				<port id="0" precision="FP32">
					<dim>1</dim>
					<dim>10</dim>
					<dim>1</dim>
					<dim>1</dim>
				</port>
			</input>
			<output>
				<port id="1" precision="FP32" names="efficientnet-b6/blocks_5/se/IdentityN:0,efficientnet-b6/blocks_5/se/mul_1:0">
					<dim>1</dim>
					<dim>10</dim>
					<dim>1</dim>
					<dim>1</dim>
				</port>
			</output>
		</layer>
		<layer id="152" name="efficientnet-b6/blocks_5/se/conv2d_1/Conv2D/ReadVariableOp" type="Const" version="opset1">
			<data element_type="f32" shape="240, 10, 1, 1" offset="281168" size="9600" />
			<output>
				<port id="0" precision="FP32" names="efficientnet-b6/blocks_5/se/conv2d_1/Conv2D/ReadVariableOp:0">
					<dim>240</dim>
					<dim>10</dim>
					<dim>1</dim>
					<dim>1</dim>
				</port>
			</output>
		</layer>
		<layer id="153" name="efficientnet-b6/blocks_5/se/conv2d_1/Conv2D" type="Convolution" version="opset1">
			<data strides="1, 1" dilations="1, 1" pads_begin="0, 0" pads_end="0, 0" auto_pad="same_upper" />
			<input>
				<port id="0" precision="FP32">
					<dim>1</dim>
					<dim>10</dim>
					<dim>1</dim>
					<dim>1</dim>
				</port>
				<port id="1" precision="FP32">
					<dim>240</dim>
					<dim>10</dim>
					<dim>1</dim>
					<dim>1</dim>
				</port>
			</input>
			<output>
				<port id="2" precision="FP32" names="efficientnet-b6/blocks_5/se/conv2d_1/Conv2D:0">
					<dim>1</dim>
					<dim>240</dim>
					<dim>1</dim>
					<dim>1</dim>
				</port>
			</output>
		</layer>
		<layer id="154" name="efficientnet-b6/blocks_5/se/conv2d_1/BiasAdd/ReadVariableOp" type="Const" version="opset1">
			<data element_type="f32" shape="1, 240, 1, 1" offset="290768" size="960" />
			<output>
				<port id="0" precision="FP32" names="efficientnet-b6/blocks_5/se/conv2d_1/BiasAdd/ReadVariableOp:0">
					<dim>1</dim>
					<dim>240</dim>
					<dim>1</dim>
					<dim>1</dim>
				</port>
			</output>
		</layer>
		<layer id="155" name="efficientnet-b6/blocks_5/se/conv2d_1/BiasAdd/Add" type="Add" version="opset1">
			<data auto_broadcast="numpy" />
			<input>
				<port id="0" precision="FP32">
					<dim>1</dim>
					<dim>240</dim>
					<dim>1</dim>
					<dim>1</dim>
				</port>
				<port id="1" precision="FP32">
					<dim>1</dim>
					<dim>240</dim>
					<dim>1</dim>
					<dim>1</dim>
				</port>
			</input>
			<output>
				<port id="2" precision="FP32" names="efficientnet-b6/blocks_5/se/conv2d_1/BiasAdd:0">
					<dim>1</dim>
					<dim>240</dim>
					<dim>1</dim>
					<dim>1</dim>
				</port>
			</output>
		</layer>
		<layer id="156" name="efficientnet-b6/blocks_5/se/Sigmoid_1" type="Sigmoid" version="opset1">
			<input>
				<port id="0" precision="FP32">
					<dim>1</dim>
					<dim>240</dim>
					<dim>1</dim>
					<dim>1</dim>
				</port>
			</input>
			<output>
				<port id="1" precision="FP32" names="efficientnet-b6/blocks_5/se/Sigmoid_1:0">
					<dim>1</dim>
					<dim>240</dim>
					<dim>1</dim>
					<dim>1</dim>
				</port>
			</output>
		</layer>
		<layer id="157" name="efficientnet-b6/blocks_5/se/mul_2" type="Multiply" version="opset1">
			<data auto_broadcast="numpy" />
			<input>
				<port id="0" precision="FP32">
					<dim>1</dim>
					<dim>240</dim>
					<dim>1</dim>
					<dim>1</dim>
				</port>
				<port id="1" precision="FP32">
					<dim>1</dim>
					<dim>240</dim>
					<dim>384</dim>
					<dim>384</dim>
				</port>
			</input>
			<output>
				<port id="2" precision="FP32" names="efficientnet-b6/blocks_5/se/mul_2:0">
					<dim>1</dim>
					<dim>240</dim>
					<dim>384</dim>
					<dim>384</dim>
				</port>
			</output>
		</layer>
		<layer id="158" name="efficientnet-b6/blocks_5/tpu_batch_normalization_2/FusedBatchNormV3/mean/Fused_Mul__copy" type="Const" version="opset1">
			<data element_type="f32" shape="40, 240, 1, 1" offset="291728" size="38400" />
			<output>
				<port id="0" precision="FP32" names="efficientnet-b6/blocks_5/conv2d_1/Conv2D/ReadVariableOp:0">
					<dim>40</dim>
					<dim>240</dim>
					<dim>1</dim>
					<dim>1</dim>
				</port>
			</output>
		</layer>
		<layer id="159" name="efficientnet-b6/blocks_5/conv2d_1/Conv2D" type="Convolution" version="opset1">
			<data strides="1, 1" dilations="1, 1" pads_begin="0, 0" pads_end="0, 0" auto_pad="same_upper" />
			<input>
				<port id="0" precision="FP32">
					<dim>1</dim>
					<dim>240</dim>
					<dim>384</dim>
					<dim>384</dim>
				</port>
				<port id="1" precision="FP32">
					<dim>40</dim>
					<dim>240</dim>
					<dim>1</dim>
					<dim>1</dim>
				</port>
			</input>
			<output>
				<port id="2" precision="FP32">
					<dim>1</dim>
					<dim>40</dim>
					<dim>384</dim>
					<dim>384</dim>
				</port>
			</output>
		</layer>
		<layer id="160" name="data_add_7913379138" type="Const" version="opset1">
			<data element_type="f32" shape="1, 40, 1, 1" offset="330128" size="160" />
			<output>
				<port id="0" precision="FP32">
					<dim>1</dim>
					<dim>40</dim>
					<dim>1</dim>
					<dim>1</dim>
				</port>
			</output>
		</layer>
		<layer id="161" name="efficientnet-b6/blocks_5/tpu_batch_normalization_2/FusedBatchNormV3/variance/Fused_Add_" type="Add" version="opset1">
			<data auto_broadcast="numpy" />
			<input>
				<port id="0" precision="FP32">
					<dim>1</dim>
					<dim>40</dim>
					<dim>384</dim>
					<dim>384</dim>
				</port>
				<port id="1" precision="FP32">
					<dim>1</dim>
					<dim>40</dim>
					<dim>1</dim>
					<dim>1</dim>
				</port>
			</input>
			<output>
				<port id="2" precision="FP32" names="efficientnet-b6/blocks_5/Identity_2:0,efficientnet-b6/blocks_5/tpu_batch_normalization_2/FusedBatchNormV3:0">
					<dim>1</dim>
					<dim>40</dim>
					<dim>384</dim>
					<dim>384</dim>
				</port>
			</output>
		</layer>
		<layer id="162" name="efficientnet-b6/blocks_5/Add" type="Add" version="opset1">
			<data auto_broadcast="numpy" />
			<input>
				<port id="0" precision="FP32">
					<dim>1</dim>
					<dim>40</dim>
					<dim>384</dim>
					<dim>384</dim>
				</port>
				<port id="1" precision="FP32">
					<dim>1</dim>
					<dim>40</dim>
					<dim>384</dim>
					<dim>384</dim>
				</port>
			</input>
			<output>
				<port id="2" precision="FP32" names="efficientnet-b6/blocks_5/Add:0">
					<dim>1</dim>
					<dim>40</dim>
					<dim>384</dim>
					<dim>384</dim>
				</port>
			</output>
		</layer>
		<layer id="163" name="efficientnet-b6/blocks_6/tpu_batch_normalization/FusedBatchNormV3/mean/Fused_Mul__copy" type="Const" version="opset1">
			<data element_type="f32" shape="240, 40, 1, 1" offset="330288" size="38400" />
			<output>
				<port id="0" precision="FP32" names="efficientnet-b6/blocks_6/conv2d/Conv2D/ReadVariableOp:0">
					<dim>240</dim>
					<dim>40</dim>
					<dim>1</dim>
					<dim>1</dim>
				</port>
			</output>
		</layer>
		<layer id="164" name="efficientnet-b6/blocks_6/conv2d/Conv2D" type="Convolution" version="opset1">
			<data strides="1, 1" dilations="1, 1" pads_begin="0, 0" pads_end="0, 0" auto_pad="same_upper" />
			<input>
				<port id="0" precision="FP32">
					<dim>1</dim>
					<dim>40</dim>
					<dim>384</dim>
					<dim>384</dim>
				</port>
				<port id="1" precision="FP32">
					<dim>240</dim>
					<dim>40</dim>
					<dim>1</dim>
					<dim>1</dim>
				</port>
			</input>
			<output>
				<port id="2" precision="FP32">
					<dim>1</dim>
					<dim>240</dim>
					<dim>384</dim>
					<dim>384</dim>
				</port>
			</output>
		</layer>
		<layer id="165" name="data_add_7914179146" type="Const" version="opset1">
			<data element_type="f32" shape="1, 240, 1, 1" offset="368688" size="960" />
			<output>
				<port id="0" precision="FP32">
					<dim>1</dim>
					<dim>240</dim>
					<dim>1</dim>
					<dim>1</dim>
				</port>
			</output>
		</layer>
		<layer id="166" name="efficientnet-b6/blocks_6/tpu_batch_normalization/FusedBatchNormV3/variance/Fused_Add_" type="Add" version="opset1">
			<data auto_broadcast="numpy" />
			<input>
				<port id="0" precision="FP32">
					<dim>1</dim>
					<dim>240</dim>
					<dim>384</dim>
					<dim>384</dim>
				</port>
				<port id="1" precision="FP32">
					<dim>1</dim>
					<dim>240</dim>
					<dim>1</dim>
					<dim>1</dim>
				</port>
			</input>
			<output>
				<port id="2" precision="FP32" names="efficientnet-b6/blocks_6/mul:0,efficientnet-b6/blocks_6/tpu_batch_normalization/FusedBatchNormV3:0">
					<dim>1</dim>
					<dim>240</dim>
					<dim>384</dim>
					<dim>384</dim>
				</port>
			</output>
		</layer>
		<layer id="167" name="efficientnet-b6/blocks_6/mul_1" type="Swish" version="opset4">
			<input>
				<port id="0" precision="FP32">
					<dim>1</dim>
					<dim>240</dim>
					<dim>384</dim>
					<dim>384</dim>
				</port>
			</input>
			<output>
				<port id="1" precision="FP32" names="efficientnet-b6/blocks_6/IdentityN:0,efficientnet-b6/blocks_6/mul_1:0">
					<dim>1</dim>
					<dim>240</dim>
					<dim>384</dim>
					<dim>384</dim>
				</port>
			</output>
		</layer>
		<layer id="168" name="efficientnet-b6/blocks_6/tpu_batch_normalization_1/FusedBatchNormV3/mean/Fused_Mul__copy" type="Const" version="opset1">
			<data element_type="f32" shape="240, 1, 1, 3, 3" offset="369648" size="8640" />
			<output>
				<port id="0" precision="FP32" names="efficientnet-b6/blocks_6/depthwise_conv2d/depthwise/ReadVariableOp:0">
					<dim>240</dim>
					<dim>1</dim>
					<dim>1</dim>
					<dim>3</dim>
					<dim>3</dim>
				</port>
			</output>
		</layer>
		<layer id="169" name="efficientnet-b6/blocks_6/depthwise_conv2d/depthwise" type="GroupConvolution" version="opset1">
			<data strides="1, 1" pads_begin="0, 0" pads_end="0, 0" dilations="1, 1" auto_pad="same_upper" />
			<input>
				<port id="0" precision="FP32">
					<dim>1</dim>
					<dim>240</dim>
					<dim>384</dim>
					<dim>384</dim>
				</port>
				<port id="1" precision="FP32">
					<dim>240</dim>
					<dim>1</dim>
					<dim>1</dim>
					<dim>3</dim>
					<dim>3</dim>
				</port>
			</input>
			<output>
				<port id="2" precision="FP32">
					<dim>1</dim>
					<dim>240</dim>
					<dim>384</dim>
					<dim>384</dim>
				</port>
			</output>
		</layer>
		<layer id="170" name="data_add_7914979154" type="Const" version="opset1">
			<data element_type="f32" shape="1, 240, 1, 1" offset="378288" size="960" />
			<output>
				<port id="0" precision="FP32">
					<dim>1</dim>
					<dim>240</dim>
					<dim>1</dim>
					<dim>1</dim>
				</port>
			</output>
		</layer>
		<layer id="171" name="efficientnet-b6/blocks_6/tpu_batch_normalization_1/FusedBatchNormV3/variance/Fused_Add_" type="Add" version="opset1">
			<data auto_broadcast="numpy" />
			<input>
				<port id="0" precision="FP32">
					<dim>1</dim>
					<dim>240</dim>
					<dim>384</dim>
					<dim>384</dim>
				</port>
				<port id="1" precision="FP32">
					<dim>1</dim>
					<dim>240</dim>
					<dim>1</dim>
					<dim>1</dim>
				</port>
			</input>
			<output>
				<port id="2" precision="FP32" names="efficientnet-b6/blocks_6/mul_2:0,efficientnet-b6/blocks_6/tpu_batch_normalization_1/FusedBatchNormV3:0">
					<dim>1</dim>
					<dim>240</dim>
					<dim>384</dim>
					<dim>384</dim>
				</port>
			</output>
		</layer>
		<layer id="172" name="efficientnet-b6/blocks_6/mul_3" type="Swish" version="opset4">
			<input>
				<port id="0" precision="FP32">
					<dim>1</dim>
					<dim>240</dim>
					<dim>384</dim>
					<dim>384</dim>
				</port>
			</input>
			<output>
				<port id="1" precision="FP32" names="efficientnet-b6/blocks_6/IdentityN_1:0,efficientnet-b6/blocks_6/mul_3:0">
					<dim>1</dim>
					<dim>240</dim>
					<dim>384</dim>
					<dim>384</dim>
				</port>
			</output>
		</layer>
		<layer id="173" name="105300149563" type="Const" version="opset1">
			<data element_type="i64" shape="2" offset="8568" size="16" />
			<output>
				<port id="0" precision="I64">
					<dim>2</dim>
				</port>
			</output>
		</layer>
		<layer id="174" name="efficientnet-b6/blocks_6/se/Mean" type="ReduceMean" version="opset1">
			<data keep_dims="true" />
			<input>
				<port id="0" precision="FP32">
					<dim>1</dim>
					<dim>240</dim>
					<dim>384</dim>
					<dim>384</dim>
				</port>
				<port id="1" precision="I64">
					<dim>2</dim>
				</port>
			</input>
			<output>
				<port id="2" precision="FP32" names="efficientnet-b6/blocks_6/se/Mean:0">
					<dim>1</dim>
					<dim>240</dim>
					<dim>1</dim>
					<dim>1</dim>
				</port>
			</output>
		</layer>
		<layer id="175" name="efficientnet-b6/blocks_6/se/conv2d/Conv2D/ReadVariableOp" type="Const" version="opset1">
			<data element_type="f32" shape="10, 240, 1, 1" offset="379248" size="9600" />
			<output>
				<port id="0" precision="FP32" names="efficientnet-b6/blocks_6/se/conv2d/Conv2D/ReadVariableOp:0">
					<dim>10</dim>
					<dim>240</dim>
					<dim>1</dim>
					<dim>1</dim>
				</port>
			</output>
		</layer>
		<layer id="176" name="efficientnet-b6/blocks_6/se/conv2d/Conv2D" type="Convolution" version="opset1">
			<data strides="1, 1" dilations="1, 1" pads_begin="0, 0" pads_end="0, 0" auto_pad="same_upper" />
			<input>
				<port id="0" precision="FP32">
					<dim>1</dim>
					<dim>240</dim>
					<dim>1</dim>
					<dim>1</dim>
				</port>
				<port id="1" precision="FP32">
					<dim>10</dim>
					<dim>240</dim>
					<dim>1</dim>
					<dim>1</dim>
				</port>
			</input>
			<output>
				<port id="2" precision="FP32" names="efficientnet-b6/blocks_6/se/conv2d/Conv2D:0">
					<dim>1</dim>
					<dim>10</dim>
					<dim>1</dim>
					<dim>1</dim>
				</port>
			</output>
		</layer>
		<layer id="177" name="efficientnet-b6/blocks_6/se/conv2d/BiasAdd/ReadVariableOp" type="Const" version="opset1">
			<data element_type="f32" shape="1, 10, 1, 1" offset="388848" size="40" />
			<output>
				<port id="0" precision="FP32" names="efficientnet-b6/blocks_6/se/conv2d/BiasAdd/ReadVariableOp:0">
					<dim>1</dim>
					<dim>10</dim>
					<dim>1</dim>
					<dim>1</dim>
				</port>
			</output>
		</layer>
		<layer id="178" name="efficientnet-b6/blocks_6/se/conv2d/BiasAdd/Add" type="Add" version="opset1">
			<data auto_broadcast="numpy" />
			<input>
				<port id="0" precision="FP32">
					<dim>1</dim>
					<dim>10</dim>
					<dim>1</dim>
					<dim>1</dim>
				</port>
				<port id="1" precision="FP32">
					<dim>1</dim>
					<dim>10</dim>
					<dim>1</dim>
					<dim>1</dim>
				</port>
			</input>
			<output>
				<port id="2" precision="FP32" names="efficientnet-b6/blocks_6/se/conv2d/BiasAdd:0,efficientnet-b6/blocks_6/se/mul:0">
					<dim>1</dim>
					<dim>10</dim>
					<dim>1</dim>
					<dim>1</dim>
				</port>
			</output>
		</layer>
		<layer id="179" name="efficientnet-b6/blocks_6/se/mul_1" type="Swish" version="opset4">
			<input>
				<port id="0" precision="FP32">
					<dim>1</dim>
					<dim>10</dim>
					<dim>1</dim>
					<dim>1</dim>
				</port>
			</input>
			<output>
				<port id="1" precision="FP32" names="efficientnet-b6/blocks_6/se/IdentityN:0,efficientnet-b6/blocks_6/se/mul_1:0">
					<dim>1</dim>
					<dim>10</dim>
					<dim>1</dim>
					<dim>1</dim>
				</port>
			</output>
		</layer>
		<layer id="180" name="efficientnet-b6/blocks_6/se/conv2d_1/Conv2D/ReadVariableOp" type="Const" version="opset1">
			<data element_type="f32" shape="240, 10, 1, 1" offset="388888" size="9600" />
			<output>
				<port id="0" precision="FP32" names="efficientnet-b6/blocks_6/se/conv2d_1/Conv2D/ReadVariableOp:0">
					<dim>240</dim>
					<dim>10</dim>
					<dim>1</dim>
					<dim>1</dim>
				</port>
			</output>
		</layer>
		<layer id="181" name="efficientnet-b6/blocks_6/se/conv2d_1/Conv2D" type="Convolution" version="opset1">
			<data strides="1, 1" dilations="1, 1" pads_begin="0, 0" pads_end="0, 0" auto_pad="same_upper" />
			<input>
				<port id="0" precision="FP32">
					<dim>1</dim>
					<dim>10</dim>
					<dim>1</dim>
					<dim>1</dim>
				</port>
				<port id="1" precision="FP32">
					<dim>240</dim>
					<dim>10</dim>
					<dim>1</dim>
					<dim>1</dim>
				</port>
			</input>
			<output>
				<port id="2" precision="FP32" names="efficientnet-b6/blocks_6/se/conv2d_1/Conv2D:0">
					<dim>1</dim>
					<dim>240</dim>
					<dim>1</dim>
					<dim>1</dim>
				</port>
			</output>
		</layer>
		<layer id="182" name="efficientnet-b6/blocks_6/se/conv2d_1/BiasAdd/ReadVariableOp" type="Const" version="opset1">
			<data element_type="f32" shape="1, 240, 1, 1" offset="398488" size="960" />
			<output>
				<port id="0" precision="FP32" names="efficientnet-b6/blocks_6/se/conv2d_1/BiasAdd/ReadVariableOp:0">
					<dim>1</dim>
					<dim>240</dim>
					<dim>1</dim>
					<dim>1</dim>
				</port>
			</output>
		</layer>
		<layer id="183" name="efficientnet-b6/blocks_6/se/conv2d_1/BiasAdd/Add" type="Add" version="opset1">
			<data auto_broadcast="numpy" />
			<input>
				<port id="0" precision="FP32">
					<dim>1</dim>
					<dim>240</dim>
					<dim>1</dim>
					<dim>1</dim>
				</port>
				<port id="1" precision="FP32">
					<dim>1</dim>
					<dim>240</dim>
					<dim>1</dim>
					<dim>1</dim>
				</port>
			</input>
			<output>
				<port id="2" precision="FP32" names="efficientnet-b6/blocks_6/se/conv2d_1/BiasAdd:0">
					<dim>1</dim>
					<dim>240</dim>
					<dim>1</dim>
					<dim>1</dim>
				</port>
			</output>
		</layer>
		<layer id="184" name="efficientnet-b6/blocks_6/se/Sigmoid_1" type="Sigmoid" version="opset1">
			<input>
				<port id="0" precision="FP32">
					<dim>1</dim>
					<dim>240</dim>
					<dim>1</dim>
					<dim>1</dim>
				</port>
			</input>
			<output>
				<port id="1" precision="FP32" names="efficientnet-b6/blocks_6/se/Sigmoid_1:0">
					<dim>1</dim>
					<dim>240</dim>
					<dim>1</dim>
					<dim>1</dim>
				</port>
			</output>
		</layer>
		<layer id="185" name="efficientnet-b6/blocks_6/se/mul_2" type="Multiply" version="opset1">
			<data auto_broadcast="numpy" />
			<input>
				<port id="0" precision="FP32">
					<dim>1</dim>
					<dim>240</dim>
					<dim>1</dim>
					<dim>1</dim>
				</port>
				<port id="1" precision="FP32">
					<dim>1</dim>
					<dim>240</dim>
					<dim>384</dim>
					<dim>384</dim>
				</port>
			</input>
			<output>
				<port id="2" precision="FP32" names="efficientnet-b6/blocks_6/se/mul_2:0">
					<dim>1</dim>
					<dim>240</dim>
					<dim>384</dim>
					<dim>384</dim>
				</port>
			</output>
		</layer>
		<layer id="186" name="efficientnet-b6/blocks_6/tpu_batch_normalization_2/FusedBatchNormV3/mean/Fused_Mul__copy" type="Const" version="opset1">
			<data element_type="f32" shape="40, 240, 1, 1" offset="399448" size="38400" />
			<output>
				<port id="0" precision="FP32" names="efficientnet-b6/blocks_6/conv2d_1/Conv2D/ReadVariableOp:0">
					<dim>40</dim>
					<dim>240</dim>
					<dim>1</dim>
					<dim>1</dim>
				</port>
			</output>
		</layer>
		<layer id="187" name="efficientnet-b6/blocks_6/conv2d_1/Conv2D" type="Convolution" version="opset1">
			<data strides="1, 1" dilations="1, 1" pads_begin="0, 0" pads_end="0, 0" auto_pad="same_upper" />
			<input>
				<port id="0" precision="FP32">
					<dim>1</dim>
					<dim>240</dim>
					<dim>384</dim>
					<dim>384</dim>
				</port>
				<port id="1" precision="FP32">
					<dim>40</dim>
					<dim>240</dim>
					<dim>1</dim>
					<dim>1</dim>
				</port>
			</input>
			<output>
				<port id="2" precision="FP32">
					<dim>1</dim>
					<dim>40</dim>
					<dim>384</dim>
					<dim>384</dim>
				</port>
			</output>
		</layer>
		<layer id="188" name="data_add_7915779162" type="Const" version="opset1">
			<data element_type="f32" shape="1, 40, 1, 1" offset="437848" size="160" />
			<output>
				<port id="0" precision="FP32">
					<dim>1</dim>
					<dim>40</dim>
					<dim>1</dim>
					<dim>1</dim>
				</port>
			</output>
		</layer>
		<layer id="189" name="efficientnet-b6/blocks_6/tpu_batch_normalization_2/FusedBatchNormV3/variance/Fused_Add_" type="Add" version="opset1">
			<data auto_broadcast="numpy" />
			<input>
				<port id="0" precision="FP32">
					<dim>1</dim>
					<dim>40</dim>
					<dim>384</dim>
					<dim>384</dim>
				</port>
				<port id="1" precision="FP32">
					<dim>1</dim>
					<dim>40</dim>
					<dim>1</dim>
					<dim>1</dim>
				</port>
			</input>
			<output>
				<port id="2" precision="FP32" names="efficientnet-b6/blocks_6/Identity_2:0,efficientnet-b6/blocks_6/tpu_batch_normalization_2/FusedBatchNormV3:0">
					<dim>1</dim>
					<dim>40</dim>
					<dim>384</dim>
					<dim>384</dim>
				</port>
			</output>
		</layer>
		<layer id="190" name="efficientnet-b6/blocks_6/Add" type="Add" version="opset1">
			<data auto_broadcast="numpy" />
			<input>
				<port id="0" precision="FP32">
					<dim>1</dim>
					<dim>40</dim>
					<dim>384</dim>
					<dim>384</dim>
				</port>
				<port id="1" precision="FP32">
					<dim>1</dim>
					<dim>40</dim>
					<dim>384</dim>
					<dim>384</dim>
				</port>
			</input>
			<output>
				<port id="2" precision="FP32" names="efficientnet-b6/blocks_6/Add:0">
					<dim>1</dim>
					<dim>40</dim>
					<dim>384</dim>
					<dim>384</dim>
				</port>
			</output>
		</layer>
		<layer id="191" name="efficientnet-b6/blocks_7/tpu_batch_normalization/FusedBatchNormV3/mean/Fused_Mul__copy" type="Const" version="opset1">
			<data element_type="f32" shape="240, 40, 1, 1" offset="438008" size="38400" />
			<output>
				<port id="0" precision="FP32" names="efficientnet-b6/blocks_7/conv2d/Conv2D/ReadVariableOp:0">
					<dim>240</dim>
					<dim>40</dim>
					<dim>1</dim>
					<dim>1</dim>
				</port>
			</output>
		</layer>
		<layer id="192" name="efficientnet-b6/blocks_7/conv2d/Conv2D" type="Convolution" version="opset1">
			<data strides="1, 1" dilations="1, 1" pads_begin="0, 0" pads_end="0, 0" auto_pad="same_upper" />
			<input>
				<port id="0" precision="FP32">
					<dim>1</dim>
					<dim>40</dim>
					<dim>384</dim>
					<dim>384</dim>
				</port>
				<port id="1" precision="FP32">
					<dim>240</dim>
					<dim>40</dim>
					<dim>1</dim>
					<dim>1</dim>
				</port>
			</input>
			<output>
				<port id="2" precision="FP32">
					<dim>1</dim>
					<dim>240</dim>
					<dim>384</dim>
					<dim>384</dim>
				</port>
			</output>
		</layer>
		<layer id="193" name="data_add_7916579170" type="Const" version="opset1">
			<data element_type="f32" shape="1, 240, 1, 1" offset="476408" size="960" />
			<output>
				<port id="0" precision="FP32">
					<dim>1</dim>
					<dim>240</dim>
					<dim>1</dim>
					<dim>1</dim>
				</port>
			</output>
		</layer>
		<layer id="194" name="efficientnet-b6/blocks_7/tpu_batch_normalization/FusedBatchNormV3/variance/Fused_Add_" type="Add" version="opset1">
			<data auto_broadcast="numpy" />
			<input>
				<port id="0" precision="FP32">
					<dim>1</dim>
					<dim>240</dim>
					<dim>384</dim>
					<dim>384</dim>
				</port>
				<port id="1" precision="FP32">
					<dim>1</dim>
					<dim>240</dim>
					<dim>1</dim>
					<dim>1</dim>
				</port>
			</input>
			<output>
				<port id="2" precision="FP32" names="efficientnet-b6/blocks_7/mul:0,efficientnet-b6/blocks_7/tpu_batch_normalization/FusedBatchNormV3:0">
					<dim>1</dim>
					<dim>240</dim>
					<dim>384</dim>
					<dim>384</dim>
				</port>
			</output>
		</layer>
		<layer id="195" name="efficientnet-b6/blocks_7/mul_1" type="Swish" version="opset4">
			<input>
				<port id="0" precision="FP32">
					<dim>1</dim>
					<dim>240</dim>
					<dim>384</dim>
					<dim>384</dim>
				</port>
			</input>
			<output>
				<port id="1" precision="FP32" names="efficientnet-b6/blocks_7/IdentityN:0,efficientnet-b6/blocks_7/mul_1:0">
					<dim>1</dim>
					<dim>240</dim>
					<dim>384</dim>
					<dim>384</dim>
				</port>
			</output>
		</layer>
		<layer id="196" name="efficientnet-b6/blocks_7/tpu_batch_normalization_1/FusedBatchNormV3/mean/Fused_Mul__copy" type="Const" version="opset1">
			<data element_type="f32" shape="240, 1, 1, 3, 3" offset="477368" size="8640" />
			<output>
				<port id="0" precision="FP32" names="efficientnet-b6/blocks_7/depthwise_conv2d/depthwise/ReadVariableOp:0">
					<dim>240</dim>
					<dim>1</dim>
					<dim>1</dim>
					<dim>3</dim>
					<dim>3</dim>
				</port>
			</output>
		</layer>
		<layer id="197" name="efficientnet-b6/blocks_7/depthwise_conv2d/depthwise" type="GroupConvolution" version="opset1">
			<data strides="1, 1" pads_begin="0, 0" pads_end="0, 0" dilations="1, 1" auto_pad="same_upper" />
			<input>
				<port id="0" precision="FP32">
					<dim>1</dim>
					<dim>240</dim>
					<dim>384</dim>
					<dim>384</dim>
				</port>
				<port id="1" precision="FP32">
					<dim>240</dim>
					<dim>1</dim>
					<dim>1</dim>
					<dim>3</dim>
					<dim>3</dim>
				</port>
			</input>
			<output>
				<port id="2" precision="FP32">
					<dim>1</dim>
					<dim>240</dim>
					<dim>384</dim>
					<dim>384</dim>
				</port>
			</output>
		</layer>
		<layer id="198" name="data_add_7917379178" type="Const" version="opset1">
			<data element_type="f32" shape="1, 240, 1, 1" offset="486008" size="960" />
			<output>
				<port id="0" precision="FP32">
					<dim>1</dim>
					<dim>240</dim>
					<dim>1</dim>
					<dim>1</dim>
				</port>
			</output>
		</layer>
		<layer id="199" name="efficientnet-b6/blocks_7/tpu_batch_normalization_1/FusedBatchNormV3/variance/Fused_Add_" type="Add" version="opset1">
			<data auto_broadcast="numpy" />
			<input>
				<port id="0" precision="FP32">
					<dim>1</dim>
					<dim>240</dim>
					<dim>384</dim>
					<dim>384</dim>
				</port>
				<port id="1" precision="FP32">
					<dim>1</dim>
					<dim>240</dim>
					<dim>1</dim>
					<dim>1</dim>
				</port>
			</input>
			<output>
				<port id="2" precision="FP32" names="efficientnet-b6/blocks_7/mul_2:0,efficientnet-b6/blocks_7/tpu_batch_normalization_1/FusedBatchNormV3:0">
					<dim>1</dim>
					<dim>240</dim>
					<dim>384</dim>
					<dim>384</dim>
				</port>
			</output>
		</layer>
		<layer id="200" name="efficientnet-b6/blocks_7/mul_3" type="Swish" version="opset4">
			<input>
				<port id="0" precision="FP32">
					<dim>1</dim>
					<dim>240</dim>
					<dim>384</dim>
					<dim>384</dim>
				</port>
			</input>
			<output>
				<port id="1" precision="FP32" names="efficientnet-b6/blocks_7/IdentityN_1:0,efficientnet-b6/blocks_7/mul_3:0">
					<dim>1</dim>
					<dim>240</dim>
					<dim>384</dim>
					<dim>384</dim>
				</port>
			</output>
		</layer>
		<layer id="201" name="105326149257" type="Const" version="opset1">
			<data element_type="i64" shape="2" offset="8568" size="16" />
			<output>
				<port id="0" precision="I64">
					<dim>2</dim>
				</port>
			</output>
		</layer>
		<layer id="202" name="efficientnet-b6/blocks_7/se/Mean" type="ReduceMean" version="opset1">
			<data keep_dims="true" />
			<input>
				<port id="0" precision="FP32">
					<dim>1</dim>
					<dim>240</dim>
					<dim>384</dim>
					<dim>384</dim>
				</port>
				<port id="1" precision="I64">
					<dim>2</dim>
				</port>
			</input>
			<output>
				<port id="2" precision="FP32" names="efficientnet-b6/blocks_7/se/Mean:0">
					<dim>1</dim>
					<dim>240</dim>
					<dim>1</dim>
					<dim>1</dim>
				</port>
			</output>
		</layer>
		<layer id="203" name="efficientnet-b6/blocks_7/se/conv2d/Conv2D/ReadVariableOp" type="Const" version="opset1">
			<data element_type="f32" shape="10, 240, 1, 1" offset="486968" size="9600" />
			<output>
				<port id="0" precision="FP32" names="efficientnet-b6/blocks_7/se/conv2d/Conv2D/ReadVariableOp:0">
					<dim>10</dim>
					<dim>240</dim>
					<dim>1</dim>
					<dim>1</dim>
				</port>
			</output>
		</layer>
		<layer id="204" name="efficientnet-b6/blocks_7/se/conv2d/Conv2D" type="Convolution" version="opset1">
			<data strides="1, 1" dilations="1, 1" pads_begin="0, 0" pads_end="0, 0" auto_pad="same_upper" />
			<input>
				<port id="0" precision="FP32">
					<dim>1</dim>
					<dim>240</dim>
					<dim>1</dim>
					<dim>1</dim>
				</port>
				<port id="1" precision="FP32">
					<dim>10</dim>
					<dim>240</dim>
					<dim>1</dim>
					<dim>1</dim>
				</port>
			</input>
			<output>
				<port id="2" precision="FP32" names="efficientnet-b6/blocks_7/se/conv2d/Conv2D:0">
					<dim>1</dim>
					<dim>10</dim>
					<dim>1</dim>
					<dim>1</dim>
				</port>
			</output>
		</layer>
		<layer id="205" name="efficientnet-b6/blocks_7/se/conv2d/BiasAdd/ReadVariableOp" type="Const" version="opset1">
			<data element_type="f32" shape="1, 10, 1, 1" offset="496568" size="40" />
			<output>
				<port id="0" precision="FP32" names="efficientnet-b6/blocks_7/se/conv2d/BiasAdd/ReadVariableOp:0">
					<dim>1</dim>
					<dim>10</dim>
					<dim>1</dim>
					<dim>1</dim>
				</port>
			</output>
		</layer>
		<layer id="206" name="efficientnet-b6/blocks_7/se/conv2d/BiasAdd/Add" type="Add" version="opset1">
			<data auto_broadcast="numpy" />
			<input>
				<port id="0" precision="FP32">
					<dim>1</dim>
					<dim>10</dim>
					<dim>1</dim>
					<dim>1</dim>
				</port>
				<port id="1" precision="FP32">
					<dim>1</dim>
					<dim>10</dim>
					<dim>1</dim>
					<dim>1</dim>
				</port>
			</input>
			<output>
				<port id="2" precision="FP32" names="efficientnet-b6/blocks_7/se/conv2d/BiasAdd:0,efficientnet-b6/blocks_7/se/mul:0">
					<dim>1</dim>
					<dim>10</dim>
					<dim>1</dim>
					<dim>1</dim>
				</port>
			</output>
		</layer>
		<layer id="207" name="efficientnet-b6/blocks_7/se/mul_1" type="Swish" version="opset4">
			<input>
				<port id="0" precision="FP32">
					<dim>1</dim>
					<dim>10</dim>
					<dim>1</dim>
					<dim>1</dim>
				</port>
			</input>
			<output>
				<port id="1" precision="FP32" names="efficientnet-b6/blocks_7/se/IdentityN:0,efficientnet-b6/blocks_7/se/mul_1:0">
					<dim>1</dim>
					<dim>10</dim>
					<dim>1</dim>
					<dim>1</dim>
				</port>
			</output>
		</layer>
		<layer id="208" name="efficientnet-b6/blocks_7/se/conv2d_1/Conv2D/ReadVariableOp" type="Const" version="opset1">
			<data element_type="f32" shape="240, 10, 1, 1" offset="496608" size="9600" />
			<output>
				<port id="0" precision="FP32" names="efficientnet-b6/blocks_7/se/conv2d_1/Conv2D/ReadVariableOp:0">
					<dim>240</dim>
					<dim>10</dim>
					<dim>1</dim>
					<dim>1</dim>
				</port>
			</output>
		</layer>
		<layer id="209" name="efficientnet-b6/blocks_7/se/conv2d_1/Conv2D" type="Convolution" version="opset1">
			<data strides="1, 1" dilations="1, 1" pads_begin="0, 0" pads_end="0, 0" auto_pad="same_upper" />
			<input>
				<port id="0" precision="FP32">
					<dim>1</dim>
					<dim>10</dim>
					<dim>1</dim>
					<dim>1</dim>
				</port>
				<port id="1" precision="FP32">
					<dim>240</dim>
					<dim>10</dim>
					<dim>1</dim>
					<dim>1</dim>
				</port>
			</input>
			<output>
				<port id="2" precision="FP32" names="efficientnet-b6/blocks_7/se/conv2d_1/Conv2D:0">
					<dim>1</dim>
					<dim>240</dim>
					<dim>1</dim>
					<dim>1</dim>
				</port>
			</output>
		</layer>
		<layer id="210" name="efficientnet-b6/blocks_7/se/conv2d_1/BiasAdd/ReadVariableOp" type="Const" version="opset1">
			<data element_type="f32" shape="1, 240, 1, 1" offset="506208" size="960" />
			<output>
				<port id="0" precision="FP32" names="efficientnet-b6/blocks_7/se/conv2d_1/BiasAdd/ReadVariableOp:0">
					<dim>1</dim>
					<dim>240</dim>
					<dim>1</dim>
					<dim>1</dim>
				</port>
			</output>
		</layer>
		<layer id="211" name="efficientnet-b6/blocks_7/se/conv2d_1/BiasAdd/Add" type="Add" version="opset1">
			<data auto_broadcast="numpy" />
			<input>
				<port id="0" precision="FP32">
					<dim>1</dim>
					<dim>240</dim>
					<dim>1</dim>
					<dim>1</dim>
				</port>
				<port id="1" precision="FP32">
					<dim>1</dim>
					<dim>240</dim>
					<dim>1</dim>
					<dim>1</dim>
				</port>
			</input>
			<output>
				<port id="2" precision="FP32" names="efficientnet-b6/blocks_7/se/conv2d_1/BiasAdd:0">
					<dim>1</dim>
					<dim>240</dim>
					<dim>1</dim>
					<dim>1</dim>
				</port>
			</output>
		</layer>
		<layer id="212" name="efficientnet-b6/blocks_7/se/Sigmoid_1" type="Sigmoid" version="opset1">
			<input>
				<port id="0" precision="FP32">
					<dim>1</dim>
					<dim>240</dim>
					<dim>1</dim>
					<dim>1</dim>
				</port>
			</input>
			<output>
				<port id="1" precision="FP32" names="efficientnet-b6/blocks_7/se/Sigmoid_1:0">
					<dim>1</dim>
					<dim>240</dim>
					<dim>1</dim>
					<dim>1</dim>
				</port>
			</output>
		</layer>
		<layer id="213" name="efficientnet-b6/blocks_7/se/mul_2" type="Multiply" version="opset1">
			<data auto_broadcast="numpy" />
			<input>
				<port id="0" precision="FP32">
					<dim>1</dim>
					<dim>240</dim>
					<dim>1</dim>
					<dim>1</dim>
				</port>
				<port id="1" precision="FP32">
					<dim>1</dim>
					<dim>240</dim>
					<dim>384</dim>
					<dim>384</dim>
				</port>
			</input>
			<output>
				<port id="2" precision="FP32" names="efficientnet-b6/blocks_7/se/mul_2:0">
					<dim>1</dim>
					<dim>240</dim>
					<dim>384</dim>
					<dim>384</dim>
				</port>
			</output>
		</layer>
		<layer id="214" name="efficientnet-b6/blocks_7/tpu_batch_normalization_2/FusedBatchNormV3/mean/Fused_Mul__copy" type="Const" version="opset1">
			<data element_type="f32" shape="40, 240, 1, 1" offset="507168" size="38400" />
			<output>
				<port id="0" precision="FP32" names="efficientnet-b6/blocks_7/conv2d_1/Conv2D/ReadVariableOp:0">
					<dim>40</dim>
					<dim>240</dim>
					<dim>1</dim>
					<dim>1</dim>
				</port>
			</output>
		</layer>
		<layer id="215" name="efficientnet-b6/blocks_7/conv2d_1/Conv2D" type="Convolution" version="opset1">
			<data strides="1, 1" dilations="1, 1" pads_begin="0, 0" pads_end="0, 0" auto_pad="same_upper" />
			<input>
				<port id="0" precision="FP32">
					<dim>1</dim>
					<dim>240</dim>
					<dim>384</dim>
					<dim>384</dim>
				</port>
				<port id="1" precision="FP32">
					<dim>40</dim>
					<dim>240</dim>
					<dim>1</dim>
					<dim>1</dim>
				</port>
			</input>
			<output>
				<port id="2" precision="FP32">
					<dim>1</dim>
					<dim>40</dim>
					<dim>384</dim>
					<dim>384</dim>
				</port>
			</output>
		</layer>
		<layer id="216" name="data_add_7918179186" type="Const" version="opset1">
			<data element_type="f32" shape="1, 40, 1, 1" offset="545568" size="160" />
			<output>
				<port id="0" precision="FP32">
					<dim>1</dim>
					<dim>40</dim>
					<dim>1</dim>
					<dim>1</dim>
				</port>
			</output>
		</layer>
		<layer id="217" name="efficientnet-b6/blocks_7/tpu_batch_normalization_2/FusedBatchNormV3/variance/Fused_Add_" type="Add" version="opset1">
			<data auto_broadcast="numpy" />
			<input>
				<port id="0" precision="FP32">
					<dim>1</dim>
					<dim>40</dim>
					<dim>384</dim>
					<dim>384</dim>
				</port>
				<port id="1" precision="FP32">
					<dim>1</dim>
					<dim>40</dim>
					<dim>1</dim>
					<dim>1</dim>
				</port>
			</input>
			<output>
				<port id="2" precision="FP32" names="efficientnet-b6/blocks_7/Identity_2:0,efficientnet-b6/blocks_7/tpu_batch_normalization_2/FusedBatchNormV3:0">
					<dim>1</dim>
					<dim>40</dim>
					<dim>384</dim>
					<dim>384</dim>
				</port>
			</output>
		</layer>
		<layer id="218" name="efficientnet-b6/blocks_7/Add" type="Add" version="opset1">
			<data auto_broadcast="numpy" />
			<input>
				<port id="0" precision="FP32">
					<dim>1</dim>
					<dim>40</dim>
					<dim>384</dim>
					<dim>384</dim>
				</port>
				<port id="1" precision="FP32">
					<dim>1</dim>
					<dim>40</dim>
					<dim>384</dim>
					<dim>384</dim>
				</port>
			</input>
			<output>
				<port id="2" precision="FP32" names="efficientnet-b6/blocks_7/Add:0">
					<dim>1</dim>
					<dim>40</dim>
					<dim>384</dim>
					<dim>384</dim>
				</port>
			</output>
		</layer>
		<layer id="219" name="efficientnet-b6/blocks_8/tpu_batch_normalization/FusedBatchNormV3/mean/Fused_Mul__copy" type="Const" version="opset1">
			<data element_type="f32" shape="240, 40, 1, 1" offset="545728" size="38400" />
			<output>
				<port id="0" precision="FP32" names="efficientnet-b6/blocks_8/conv2d/Conv2D/ReadVariableOp:0">
					<dim>240</dim>
					<dim>40</dim>
					<dim>1</dim>
					<dim>1</dim>
				</port>
			</output>
		</layer>
		<layer id="220" name="efficientnet-b6/blocks_8/conv2d/Conv2D" type="Convolution" version="opset1">
			<data strides="1, 1" dilations="1, 1" pads_begin="0, 0" pads_end="0, 0" auto_pad="same_upper" />
			<input>
				<port id="0" precision="FP32">
					<dim>1</dim>
					<dim>40</dim>
					<dim>384</dim>
					<dim>384</dim>
				</port>
				<port id="1" precision="FP32">
					<dim>240</dim>
					<dim>40</dim>
					<dim>1</dim>
					<dim>1</dim>
				</port>
			</input>
			<output>
				<port id="2" precision="FP32">
					<dim>1</dim>
					<dim>240</dim>
					<dim>384</dim>
					<dim>384</dim>
				</port>
			</output>
		</layer>
		<layer id="221" name="data_add_7918979194" type="Const" version="opset1">
			<data element_type="f32" shape="1, 240, 1, 1" offset="584128" size="960" />
			<output>
				<port id="0" precision="FP32">
					<dim>1</dim>
					<dim>240</dim>
					<dim>1</dim>
					<dim>1</dim>
				</port>
			</output>
		</layer>
		<layer id="222" name="efficientnet-b6/blocks_8/tpu_batch_normalization/FusedBatchNormV3/variance/Fused_Add_" type="Add" version="opset1">
			<data auto_broadcast="numpy" />
			<input>
				<port id="0" precision="FP32">
					<dim>1</dim>
					<dim>240</dim>
					<dim>384</dim>
					<dim>384</dim>
				</port>
				<port id="1" precision="FP32">
					<dim>1</dim>
					<dim>240</dim>
					<dim>1</dim>
					<dim>1</dim>
				</port>
			</input>
			<output>
				<port id="2" precision="FP32" names="efficientnet-b6/blocks_8/mul:0,efficientnet-b6/blocks_8/tpu_batch_normalization/FusedBatchNormV3:0">
					<dim>1</dim>
					<dim>240</dim>
					<dim>384</dim>
					<dim>384</dim>
				</port>
			</output>
		</layer>
		<layer id="223" name="efficientnet-b6/blocks_8/mul_1" type="Swish" version="opset4">
			<input>
				<port id="0" precision="FP32">
					<dim>1</dim>
					<dim>240</dim>
					<dim>384</dim>
					<dim>384</dim>
				</port>
			</input>
			<output>
				<port id="1" precision="FP32" names="efficientnet-b6/blocks_8/IdentityN:0,efficientnet-b6/blocks_8/mul_1:0">
					<dim>1</dim>
					<dim>240</dim>
					<dim>384</dim>
					<dim>384</dim>
				</port>
			</output>
		</layer>
		<layer id="224" name="efficientnet-b6/blocks_8/tpu_batch_normalization_1/FusedBatchNormV3/mean/Fused_Mul__copy" type="Const" version="opset1">
			<data element_type="f32" shape="240, 1, 1, 3, 3" offset="585088" size="8640" />
			<output>
				<port id="0" precision="FP32" names="efficientnet-b6/blocks_8/depthwise_conv2d/depthwise/ReadVariableOp:0">
					<dim>240</dim>
					<dim>1</dim>
					<dim>1</dim>
					<dim>3</dim>
					<dim>3</dim>
				</port>
			</output>
		</layer>
		<layer id="225" name="efficientnet-b6/blocks_8/depthwise_conv2d/depthwise" type="GroupConvolution" version="opset1">
			<data strides="1, 1" pads_begin="0, 0" pads_end="0, 0" dilations="1, 1" auto_pad="same_upper" />
			<input>
				<port id="0" precision="FP32">
					<dim>1</dim>
					<dim>240</dim>
					<dim>384</dim>
					<dim>384</dim>
				</port>
				<port id="1" precision="FP32">
					<dim>240</dim>
					<dim>1</dim>
					<dim>1</dim>
					<dim>3</dim>
					<dim>3</dim>
				</port>
			</input>
			<output>
				<port id="2" precision="FP32">
					<dim>1</dim>
					<dim>240</dim>
					<dim>384</dim>
					<dim>384</dim>
				</port>
			</output>
		</layer>
		<layer id="226" name="data_add_7919779202" type="Const" version="opset1">
			<data element_type="f32" shape="1, 240, 1, 1" offset="593728" size="960" />
			<output>
				<port id="0" precision="FP32">
					<dim>1</dim>
					<dim>240</dim>
					<dim>1</dim>
					<dim>1</dim>
				</port>
			</output>
		</layer>
		<layer id="227" name="efficientnet-b6/blocks_8/tpu_batch_normalization_1/FusedBatchNormV3/variance/Fused_Add_" type="Add" version="opset1">
			<data auto_broadcast="numpy" />
			<input>
				<port id="0" precision="FP32">
					<dim>1</dim>
					<dim>240</dim>
					<dim>384</dim>
					<dim>384</dim>
				</port>
				<port id="1" precision="FP32">
					<dim>1</dim>
					<dim>240</dim>
					<dim>1</dim>
					<dim>1</dim>
				</port>
			</input>
			<output>
				<port id="2" precision="FP32" names="efficientnet-b6/blocks_8/mul_2:0,efficientnet-b6/blocks_8/tpu_batch_normalization_1/FusedBatchNormV3:0">
					<dim>1</dim>
					<dim>240</dim>
					<dim>384</dim>
					<dim>384</dim>
				</port>
			</output>
		</layer>
		<layer id="228" name="efficientnet-b6/blocks_8/mul_3" type="Swish" version="opset4">
			<input>
				<port id="0" precision="FP32">
					<dim>1</dim>
					<dim>240</dim>
					<dim>384</dim>
					<dim>384</dim>
				</port>
			</input>
			<output>
				<port id="1" precision="FP32" names="efficientnet-b6/blocks_8/IdentityN_1:0,efficientnet-b6/blocks_8/mul_3:0">
					<dim>1</dim>
					<dim>240</dim>
					<dim>384</dim>
					<dim>384</dim>
				</port>
			</output>
		</layer>
		<layer id="229" name="105352151636" type="Const" version="opset1">
			<data element_type="i64" shape="2" offset="8568" size="16" />
			<output>
				<port id="0" precision="I64">
					<dim>2</dim>
				</port>
			</output>
		</layer>
		<layer id="230" name="efficientnet-b6/blocks_8/se/Mean" type="ReduceMean" version="opset1">
			<data keep_dims="true" />
			<input>
				<port id="0" precision="FP32">
					<dim>1</dim>
					<dim>240</dim>
					<dim>384</dim>
					<dim>384</dim>
				</port>
				<port id="1" precision="I64">
					<dim>2</dim>
				</port>
			</input>
			<output>
				<port id="2" precision="FP32" names="efficientnet-b6/blocks_8/se/Mean:0">
					<dim>1</dim>
					<dim>240</dim>
					<dim>1</dim>
					<dim>1</dim>
				</port>
			</output>
		</layer>
		<layer id="231" name="efficientnet-b6/blocks_8/se/conv2d/Conv2D/ReadVariableOp" type="Const" version="opset1">
			<data element_type="f32" shape="10, 240, 1, 1" offset="594688" size="9600" />
			<output>
				<port id="0" precision="FP32" names="efficientnet-b6/blocks_8/se/conv2d/Conv2D/ReadVariableOp:0">
					<dim>10</dim>
					<dim>240</dim>
					<dim>1</dim>
					<dim>1</dim>
				</port>
			</output>
		</layer>
		<layer id="232" name="efficientnet-b6/blocks_8/se/conv2d/Conv2D" type="Convolution" version="opset1">
			<data strides="1, 1" dilations="1, 1" pads_begin="0, 0" pads_end="0, 0" auto_pad="same_upper" />
			<input>
				<port id="0" precision="FP32">
					<dim>1</dim>
					<dim>240</dim>
					<dim>1</dim>
					<dim>1</dim>
				</port>
				<port id="1" precision="FP32">
					<dim>10</dim>
					<dim>240</dim>
					<dim>1</dim>
					<dim>1</dim>
				</port>
			</input>
			<output>
				<port id="2" precision="FP32" names="efficientnet-b6/blocks_8/se/conv2d/Conv2D:0">
					<dim>1</dim>
					<dim>10</dim>
					<dim>1</dim>
					<dim>1</dim>
				</port>
			</output>
		</layer>
		<layer id="233" name="efficientnet-b6/blocks_8/se/conv2d/BiasAdd/ReadVariableOp" type="Const" version="opset1">
			<data element_type="f32" shape="1, 10, 1, 1" offset="604288" size="40" />
			<output>
				<port id="0" precision="FP32" names="efficientnet-b6/blocks_8/se/conv2d/BiasAdd/ReadVariableOp:0">
					<dim>1</dim>
					<dim>10</dim>
					<dim>1</dim>
					<dim>1</dim>
				</port>
			</output>
		</layer>
		<layer id="234" name="efficientnet-b6/blocks_8/se/conv2d/BiasAdd/Add" type="Add" version="opset1">
			<data auto_broadcast="numpy" />
			<input>
				<port id="0" precision="FP32">
					<dim>1</dim>
					<dim>10</dim>
					<dim>1</dim>
					<dim>1</dim>
				</port>
				<port id="1" precision="FP32">
					<dim>1</dim>
					<dim>10</dim>
					<dim>1</dim>
					<dim>1</dim>
				</port>
			</input>
			<output>
				<port id="2" precision="FP32" names="efficientnet-b6/blocks_8/se/conv2d/BiasAdd:0,efficientnet-b6/blocks_8/se/mul:0">
					<dim>1</dim>
					<dim>10</dim>
					<dim>1</dim>
					<dim>1</dim>
				</port>
			</output>
		</layer>
		<layer id="235" name="efficientnet-b6/blocks_8/se/mul_1" type="Swish" version="opset4">
			<input>
				<port id="0" precision="FP32">
					<dim>1</dim>
					<dim>10</dim>
					<dim>1</dim>
					<dim>1</dim>
				</port>
			</input>
			<output>
				<port id="1" precision="FP32" names="efficientnet-b6/blocks_8/se/IdentityN:0,efficientnet-b6/blocks_8/se/mul_1:0">
					<dim>1</dim>
					<dim>10</dim>
					<dim>1</dim>
					<dim>1</dim>
				</port>
			</output>
		</layer>
		<layer id="236" name="efficientnet-b6/blocks_8/se/conv2d_1/Conv2D/ReadVariableOp" type="Const" version="opset1">
			<data element_type="f32" shape="240, 10, 1, 1" offset="604328" size="9600" />
			<output>
				<port id="0" precision="FP32" names="efficientnet-b6/blocks_8/se/conv2d_1/Conv2D/ReadVariableOp:0">
					<dim>240</dim>
					<dim>10</dim>
					<dim>1</dim>
					<dim>1</dim>
				</port>
			</output>
		</layer>
		<layer id="237" name="efficientnet-b6/blocks_8/se/conv2d_1/Conv2D" type="Convolution" version="opset1">
			<data strides="1, 1" dilations="1, 1" pads_begin="0, 0" pads_end="0, 0" auto_pad="same_upper" />
			<input>
				<port id="0" precision="FP32">
					<dim>1</dim>
					<dim>10</dim>
					<dim>1</dim>
					<dim>1</dim>
				</port>
				<port id="1" precision="FP32">
					<dim>240</dim>
					<dim>10</dim>
					<dim>1</dim>
					<dim>1</dim>
				</port>
			</input>
			<output>
				<port id="2" precision="FP32" names="efficientnet-b6/blocks_8/se/conv2d_1/Conv2D:0">
					<dim>1</dim>
					<dim>240</dim>
					<dim>1</dim>
					<dim>1</dim>
				</port>
			</output>
		</layer>
		<layer id="238" name="efficientnet-b6/blocks_8/se/conv2d_1/BiasAdd/ReadVariableOp" type="Const" version="opset1">
			<data element_type="f32" shape="1, 240, 1, 1" offset="613928" size="960" />
			<output>
				<port id="0" precision="FP32" names="efficientnet-b6/blocks_8/se/conv2d_1/BiasAdd/ReadVariableOp:0">
					<dim>1</dim>
					<dim>240</dim>
					<dim>1</dim>
					<dim>1</dim>
				</port>
			</output>
		</layer>
		<layer id="239" name="efficientnet-b6/blocks_8/se/conv2d_1/BiasAdd/Add" type="Add" version="opset1">
			<data auto_broadcast="numpy" />
			<input>
				<port id="0" precision="FP32">
					<dim>1</dim>
					<dim>240</dim>
					<dim>1</dim>
					<dim>1</dim>
				</port>
				<port id="1" precision="FP32">
					<dim>1</dim>
					<dim>240</dim>
					<dim>1</dim>
					<dim>1</dim>
				</port>
			</input>
			<output>
				<port id="2" precision="FP32" names="efficientnet-b6/blocks_8/se/conv2d_1/BiasAdd:0">
					<dim>1</dim>
					<dim>240</dim>
					<dim>1</dim>
					<dim>1</dim>
				</port>
			</output>
		</layer>
		<layer id="240" name="efficientnet-b6/blocks_8/se/Sigmoid_1" type="Sigmoid" version="opset1">
			<input>
				<port id="0" precision="FP32">
					<dim>1</dim>
					<dim>240</dim>
					<dim>1</dim>
					<dim>1</dim>
				</port>
			</input>
			<output>
				<port id="1" precision="FP32" names="efficientnet-b6/blocks_8/se/Sigmoid_1:0">
					<dim>1</dim>
					<dim>240</dim>
					<dim>1</dim>
					<dim>1</dim>
				</port>
			</output>
		</layer>
		<layer id="241" name="efficientnet-b6/blocks_8/se/mul_2" type="Multiply" version="opset1">
			<data auto_broadcast="numpy" />
			<input>
				<port id="0" precision="FP32">
					<dim>1</dim>
					<dim>240</dim>
					<dim>1</dim>
					<dim>1</dim>
				</port>
				<port id="1" precision="FP32">
					<dim>1</dim>
					<dim>240</dim>
					<dim>384</dim>
					<dim>384</dim>
				</port>
			</input>
			<output>
				<port id="2" precision="FP32" names="efficientnet-b6/blocks_8/se/mul_2:0">
					<dim>1</dim>
					<dim>240</dim>
					<dim>384</dim>
					<dim>384</dim>
				</port>
			</output>
		</layer>
		<layer id="242" name="efficientnet-b6/blocks_8/tpu_batch_normalization_2/FusedBatchNormV3/mean/Fused_Mul__copy" type="Const" version="opset1">
			<data element_type="f32" shape="40, 240, 1, 1" offset="614888" size="38400" />
			<output>
				<port id="0" precision="FP32" names="efficientnet-b6/blocks_8/conv2d_1/Conv2D/ReadVariableOp:0">
					<dim>40</dim>
					<dim>240</dim>
					<dim>1</dim>
					<dim>1</dim>
				</port>
			</output>
		</layer>
		<layer id="243" name="efficientnet-b6/blocks_8/conv2d_1/Conv2D" type="Convolution" version="opset1">
			<data strides="1, 1" dilations="1, 1" pads_begin="0, 0" pads_end="0, 0" auto_pad="same_upper" />
			<input>
				<port id="0" precision="FP32">
					<dim>1</dim>
					<dim>240</dim>
					<dim>384</dim>
					<dim>384</dim>
				</port>
				<port id="1" precision="FP32">
					<dim>40</dim>
					<dim>240</dim>
					<dim>1</dim>
					<dim>1</dim>
				</port>
			</input>
			<output>
				<port id="2" precision="FP32">
					<dim>1</dim>
					<dim>40</dim>
					<dim>384</dim>
					<dim>384</dim>
				</port>
			</output>
		</layer>
		<layer id="244" name="data_add_7920579210" type="Const" version="opset1">
			<data element_type="f32" shape="1, 40, 1, 1" offset="653288" size="160" />
			<output>
				<port id="0" precision="FP32">
					<dim>1</dim>
					<dim>40</dim>
					<dim>1</dim>
					<dim>1</dim>
				</port>
			</output>
		</layer>
		<layer id="245" name="efficientnet-b6/blocks_8/tpu_batch_normalization_2/FusedBatchNormV3/variance/Fused_Add_" type="Add" version="opset1">
			<data auto_broadcast="numpy" />
			<input>
				<port id="0" precision="FP32">
					<dim>1</dim>
					<dim>40</dim>
					<dim>384</dim>
					<dim>384</dim>
				</port>
				<port id="1" precision="FP32">
					<dim>1</dim>
					<dim>40</dim>
					<dim>1</dim>
					<dim>1</dim>
				</port>
			</input>
			<output>
				<port id="2" precision="FP32" names="efficientnet-b6/blocks_8/Identity_2:0,efficientnet-b6/blocks_8/tpu_batch_normalization_2/FusedBatchNormV3:0">
					<dim>1</dim>
					<dim>40</dim>
					<dim>384</dim>
					<dim>384</dim>
				</port>
			</output>
		</layer>
		<layer id="246" name="efficientnet-b6/blocks_8/Add" type="Add" version="opset1">
			<data auto_broadcast="numpy" />
			<input>
				<port id="0" precision="FP32">
					<dim>1</dim>
					<dim>40</dim>
					<dim>384</dim>
					<dim>384</dim>
				</port>
				<port id="1" precision="FP32">
					<dim>1</dim>
					<dim>40</dim>
					<dim>384</dim>
					<dim>384</dim>
				</port>
			</input>
			<output>
				<port id="2" precision="FP32" names="efficientnet-b6/blocks_8/Add:0">
					<dim>1</dim>
					<dim>40</dim>
					<dim>384</dim>
					<dim>384</dim>
				</port>
			</output>
		</layer>
		<layer id="247" name="efficientnet-b6/blocks_9/tpu_batch_normalization/FusedBatchNormV3/mean/Fused_Mul__copy" type="Const" version="opset1">
			<data element_type="f32" shape="240, 40, 1, 1" offset="653448" size="38400" />
			<output>
				<port id="0" precision="FP32" names="efficientnet-b6/blocks_9/conv2d/Conv2D/ReadVariableOp:0">
					<dim>240</dim>
					<dim>40</dim>
					<dim>1</dim>
					<dim>1</dim>
				</port>
			</output>
		</layer>
		<layer id="248" name="efficientnet-b6/blocks_9/conv2d/Conv2D" type="Convolution" version="opset1">
			<data strides="1, 1" dilations="1, 1" pads_begin="0, 0" pads_end="0, 0" auto_pad="same_upper" />
			<input>
				<port id="0" precision="FP32">
					<dim>1</dim>
					<dim>40</dim>
					<dim>384</dim>
					<dim>384</dim>
				</port>
				<port id="1" precision="FP32">
					<dim>240</dim>
					<dim>40</dim>
					<dim>1</dim>
					<dim>1</dim>
				</port>
			</input>
			<output>
				<port id="2" precision="FP32">
					<dim>1</dim>
					<dim>240</dim>
					<dim>384</dim>
					<dim>384</dim>
				</port>
			</output>
		</layer>
		<layer id="249" name="data_add_7921379218" type="Const" version="opset1">
			<data element_type="f32" shape="1, 240, 1, 1" offset="691848" size="960" />
			<output>
				<port id="0" precision="FP32">
					<dim>1</dim>
					<dim>240</dim>
					<dim>1</dim>
					<dim>1</dim>
				</port>
			</output>
		</layer>
		<layer id="250" name="efficientnet-b6/blocks_9/tpu_batch_normalization/FusedBatchNormV3/variance/Fused_Add_" type="Add" version="opset1">
			<data auto_broadcast="numpy" />
			<input>
				<port id="0" precision="FP32">
					<dim>1</dim>
					<dim>240</dim>
					<dim>384</dim>
					<dim>384</dim>
				</port>
				<port id="1" precision="FP32">
					<dim>1</dim>
					<dim>240</dim>
					<dim>1</dim>
					<dim>1</dim>
				</port>
			</input>
			<output>
				<port id="2" precision="FP32" names="efficientnet-b6/blocks_9/mul:0,efficientnet-b6/blocks_9/tpu_batch_normalization/FusedBatchNormV3:0">
					<dim>1</dim>
					<dim>240</dim>
					<dim>384</dim>
					<dim>384</dim>
				</port>
			</output>
		</layer>
		<layer id="251" name="efficientnet-b6/blocks_9/mul_1" type="Swish" version="opset4">
			<input>
				<port id="0" precision="FP32">
					<dim>1</dim>
					<dim>240</dim>
					<dim>384</dim>
					<dim>384</dim>
				</port>
			</input>
			<output>
				<port id="1" precision="FP32" names="efficientnet-b6/blocks_9/IdentityN:0,efficientnet-b6/blocks_9/mul_1:0">
					<dim>1</dim>
					<dim>240</dim>
					<dim>384</dim>
					<dim>384</dim>
				</port>
			</output>
		</layer>
		<layer id="252" name="efficientnet-b6/blocks_9/tpu_batch_normalization_1/FusedBatchNormV3/mean/Fused_Mul__copy" type="Const" version="opset1">
			<data element_type="f32" shape="240, 1, 1, 5, 5" offset="692808" size="24000" />
			<output>
				<port id="0" precision="FP32" names="efficientnet-b6/blocks_9/depthwise_conv2d/depthwise/ReadVariableOp:0">
					<dim>240</dim>
					<dim>1</dim>
					<dim>1</dim>
					<dim>5</dim>
					<dim>5</dim>
				</port>
			</output>
		</layer>
		<layer id="253" name="efficientnet-b6/blocks_9/depthwise_conv2d/depthwise" type="GroupConvolution" version="opset1">
			<data strides="2, 2" pads_begin="0, 0" pads_end="0, 0" dilations="1, 1" auto_pad="same_upper" />
			<input>
				<port id="0" precision="FP32">
					<dim>1</dim>
					<dim>240</dim>
					<dim>384</dim>
					<dim>384</dim>
				</port>
				<port id="1" precision="FP32">
					<dim>240</dim>
					<dim>1</dim>
					<dim>1</dim>
					<dim>5</dim>
					<dim>5</dim>
				</port>
			</input>
			<output>
				<port id="2" precision="FP32">
					<dim>1</dim>
					<dim>240</dim>
					<dim>192</dim>
					<dim>192</dim>
				</port>
			</output>
		</layer>
		<layer id="254" name="data_add_7922179226" type="Const" version="opset1">
			<data element_type="f32" shape="1, 240, 1, 1" offset="716808" size="960" />
			<output>
				<port id="0" precision="FP32">
					<dim>1</dim>
					<dim>240</dim>
					<dim>1</dim>
					<dim>1</dim>
				</port>
			</output>
		</layer>
		<layer id="255" name="efficientnet-b6/blocks_9/tpu_batch_normalization_1/FusedBatchNormV3/variance/Fused_Add_" type="Add" version="opset1">
			<data auto_broadcast="numpy" />
			<input>
				<port id="0" precision="FP32">
					<dim>1</dim>
					<dim>240</dim>
					<dim>192</dim>
					<dim>192</dim>
				</port>
				<port id="1" precision="FP32">
					<dim>1</dim>
					<dim>240</dim>
					<dim>1</dim>
					<dim>1</dim>
				</port>
			</input>
			<output>
				<port id="2" precision="FP32" names="efficientnet-b6/blocks_9/mul_2:0,efficientnet-b6/blocks_9/tpu_batch_normalization_1/FusedBatchNormV3:0">
					<dim>1</dim>
					<dim>240</dim>
					<dim>192</dim>
					<dim>192</dim>
				</port>
			</output>
		</layer>
		<layer id="256" name="efficientnet-b6/blocks_9/mul_3" type="Swish" version="opset4">
			<input>
				<port id="0" precision="FP32">
					<dim>1</dim>
					<dim>240</dim>
					<dim>192</dim>
					<dim>192</dim>
				</port>
			</input>
			<output>
				<port id="1" precision="FP32" names="efficientnet-b6/blocks_9/IdentityN_1:0,efficientnet-b6/blocks_9/mul_3:0">
					<dim>1</dim>
					<dim>240</dim>
					<dim>192</dim>
					<dim>192</dim>
				</port>
			</output>
		</layer>
		<layer id="257" name="105378151276" type="Const" version="opset1">
			<data element_type="i64" shape="2" offset="8568" size="16" />
			<output>
				<port id="0" precision="I64">
					<dim>2</dim>
				</port>
			</output>
		</layer>
		<layer id="258" name="efficientnet-b6/blocks_9/se/Mean" type="ReduceMean" version="opset1">
			<data keep_dims="true" />
			<input>
				<port id="0" precision="FP32">
					<dim>1</dim>
					<dim>240</dim>
					<dim>192</dim>
					<dim>192</dim>
				</port>
				<port id="1" precision="I64">
					<dim>2</dim>
				</port>
			</input>
			<output>
				<port id="2" precision="FP32" names="efficientnet-b6/blocks_9/se/Mean:0">
					<dim>1</dim>
					<dim>240</dim>
					<dim>1</dim>
					<dim>1</dim>
				</port>
			</output>
		</layer>
		<layer id="259" name="efficientnet-b6/blocks_9/se/conv2d/Conv2D/ReadVariableOp" type="Const" version="opset1">
			<data element_type="f32" shape="10, 240, 1, 1" offset="717768" size="9600" />
			<output>
				<port id="0" precision="FP32" names="efficientnet-b6/blocks_9/se/conv2d/Conv2D/ReadVariableOp:0">
					<dim>10</dim>
					<dim>240</dim>
					<dim>1</dim>
					<dim>1</dim>
				</port>
			</output>
		</layer>
		<layer id="260" name="efficientnet-b6/blocks_9/se/conv2d/Conv2D" type="Convolution" version="opset1">
			<data strides="1, 1" dilations="1, 1" pads_begin="0, 0" pads_end="0, 0" auto_pad="same_upper" />
			<input>
				<port id="0" precision="FP32">
					<dim>1</dim>
					<dim>240</dim>
					<dim>1</dim>
					<dim>1</dim>
				</port>
				<port id="1" precision="FP32">
					<dim>10</dim>
					<dim>240</dim>
					<dim>1</dim>
					<dim>1</dim>
				</port>
			</input>
			<output>
				<port id="2" precision="FP32" names="efficientnet-b6/blocks_9/se/conv2d/Conv2D:0">
					<dim>1</dim>
					<dim>10</dim>
					<dim>1</dim>
					<dim>1</dim>
				</port>
			</output>
		</layer>
		<layer id="261" name="efficientnet-b6/blocks_9/se/conv2d/BiasAdd/ReadVariableOp" type="Const" version="opset1">
			<data element_type="f32" shape="1, 10, 1, 1" offset="727368" size="40" />
			<output>
				<port id="0" precision="FP32" names="efficientnet-b6/blocks_9/se/conv2d/BiasAdd/ReadVariableOp:0">
					<dim>1</dim>
					<dim>10</dim>
					<dim>1</dim>
					<dim>1</dim>
				</port>
			</output>
		</layer>
		<layer id="262" name="efficientnet-b6/blocks_9/se/conv2d/BiasAdd/Add" type="Add" version="opset1">
			<data auto_broadcast="numpy" />
			<input>
				<port id="0" precision="FP32">
					<dim>1</dim>
					<dim>10</dim>
					<dim>1</dim>
					<dim>1</dim>
				</port>
				<port id="1" precision="FP32">
					<dim>1</dim>
					<dim>10</dim>
					<dim>1</dim>
					<dim>1</dim>
				</port>
			</input>
			<output>
				<port id="2" precision="FP32" names="efficientnet-b6/blocks_9/se/conv2d/BiasAdd:0,efficientnet-b6/blocks_9/se/mul:0">
					<dim>1</dim>
					<dim>10</dim>
					<dim>1</dim>
					<dim>1</dim>
				</port>
			</output>
		</layer>
		<layer id="263" name="efficientnet-b6/blocks_9/se/mul_1" type="Swish" version="opset4">
			<input>
				<port id="0" precision="FP32">
					<dim>1</dim>
					<dim>10</dim>
					<dim>1</dim>
					<dim>1</dim>
				</port>
			</input>
			<output>
				<port id="1" precision="FP32" names="efficientnet-b6/blocks_9/se/IdentityN:0,efficientnet-b6/blocks_9/se/mul_1:0">
					<dim>1</dim>
					<dim>10</dim>
					<dim>1</dim>
					<dim>1</dim>
				</port>
			</output>
		</layer>
		<layer id="264" name="efficientnet-b6/blocks_9/se/conv2d_1/Conv2D/ReadVariableOp" type="Const" version="opset1">
			<data element_type="f32" shape="240, 10, 1, 1" offset="727408" size="9600" />
			<output>
				<port id="0" precision="FP32" names="efficientnet-b6/blocks_9/se/conv2d_1/Conv2D/ReadVariableOp:0">
					<dim>240</dim>
					<dim>10</dim>
					<dim>1</dim>
					<dim>1</dim>
				</port>
			</output>
		</layer>
		<layer id="265" name="efficientnet-b6/blocks_9/se/conv2d_1/Conv2D" type="Convolution" version="opset1">
			<data strides="1, 1" dilations="1, 1" pads_begin="0, 0" pads_end="0, 0" auto_pad="same_upper" />
			<input>
				<port id="0" precision="FP32">
					<dim>1</dim>
					<dim>10</dim>
					<dim>1</dim>
					<dim>1</dim>
				</port>
				<port id="1" precision="FP32">
					<dim>240</dim>
					<dim>10</dim>
					<dim>1</dim>
					<dim>1</dim>
				</port>
			</input>
			<output>
				<port id="2" precision="FP32" names="efficientnet-b6/blocks_9/se/conv2d_1/Conv2D:0">
					<dim>1</dim>
					<dim>240</dim>
					<dim>1</dim>
					<dim>1</dim>
				</port>
			</output>
		</layer>
		<layer id="266" name="efficientnet-b6/blocks_9/se/conv2d_1/BiasAdd/ReadVariableOp" type="Const" version="opset1">
			<data element_type="f32" shape="1, 240, 1, 1" offset="737008" size="960" />
			<output>
				<port id="0" precision="FP32" names="efficientnet-b6/blocks_9/se/conv2d_1/BiasAdd/ReadVariableOp:0">
					<dim>1</dim>
					<dim>240</dim>
					<dim>1</dim>
					<dim>1</dim>
				</port>
			</output>
		</layer>
		<layer id="267" name="efficientnet-b6/blocks_9/se/conv2d_1/BiasAdd/Add" type="Add" version="opset1">
			<data auto_broadcast="numpy" />
			<input>
				<port id="0" precision="FP32">
					<dim>1</dim>
					<dim>240</dim>
					<dim>1</dim>
					<dim>1</dim>
				</port>
				<port id="1" precision="FP32">
					<dim>1</dim>
					<dim>240</dim>
					<dim>1</dim>
					<dim>1</dim>
				</port>
			</input>
			<output>
				<port id="2" precision="FP32" names="efficientnet-b6/blocks_9/se/conv2d_1/BiasAdd:0">
					<dim>1</dim>
					<dim>240</dim>
					<dim>1</dim>
					<dim>1</dim>
				</port>
			</output>
		</layer>
		<layer id="268" name="efficientnet-b6/blocks_9/se/Sigmoid_1" type="Sigmoid" version="opset1">
			<input>
				<port id="0" precision="FP32">
					<dim>1</dim>
					<dim>240</dim>
					<dim>1</dim>
					<dim>1</dim>
				</port>
			</input>
			<output>
				<port id="1" precision="FP32" names="efficientnet-b6/blocks_9/se/Sigmoid_1:0">
					<dim>1</dim>
					<dim>240</dim>
					<dim>1</dim>
					<dim>1</dim>
				</port>
			</output>
		</layer>
		<layer id="269" name="efficientnet-b6/blocks_9/se/mul_2" type="Multiply" version="opset1">
			<data auto_broadcast="numpy" />
			<input>
				<port id="0" precision="FP32">
					<dim>1</dim>
					<dim>240</dim>
					<dim>1</dim>
					<dim>1</dim>
				</port>
				<port id="1" precision="FP32">
					<dim>1</dim>
					<dim>240</dim>
					<dim>192</dim>
					<dim>192</dim>
				</port>
			</input>
			<output>
				<port id="2" precision="FP32" names="efficientnet-b6/blocks_9/se/mul_2:0">
					<dim>1</dim>
					<dim>240</dim>
					<dim>192</dim>
					<dim>192</dim>
				</port>
			</output>
		</layer>
		<layer id="270" name="efficientnet-b6/blocks_9/tpu_batch_normalization_2/FusedBatchNormV3/mean/Fused_Mul__copy" type="Const" version="opset1">
			<data element_type="f32" shape="72, 240, 1, 1" offset="737968" size="69120" />
			<output>
				<port id="0" precision="FP32" names="efficientnet-b6/blocks_9/conv2d_1/Conv2D/ReadVariableOp:0">
					<dim>72</dim>
					<dim>240</dim>
					<dim>1</dim>
					<dim>1</dim>
				</port>
			</output>
		</layer>
		<layer id="271" name="efficientnet-b6/blocks_9/conv2d_1/Conv2D" type="Convolution" version="opset1">
			<data strides="1, 1" dilations="1, 1" pads_begin="0, 0" pads_end="0, 0" auto_pad="same_upper" />
			<input>
				<port id="0" precision="FP32">
					<dim>1</dim>
					<dim>240</dim>
					<dim>192</dim>
					<dim>192</dim>
				</port>
				<port id="1" precision="FP32">
					<dim>72</dim>
					<dim>240</dim>
					<dim>1</dim>
					<dim>1</dim>
				</port>
			</input>
			<output>
				<port id="2" precision="FP32">
					<dim>1</dim>
					<dim>72</dim>
					<dim>192</dim>
					<dim>192</dim>
				</port>
			</output>
		</layer>
		<layer id="272" name="data_add_7922979234" type="Const" version="opset1">
			<data element_type="f32" shape="1, 72, 1, 1" offset="807088" size="288" />
			<output>
				<port id="0" precision="FP32">
					<dim>1</dim>
					<dim>72</dim>
					<dim>1</dim>
					<dim>1</dim>
				</port>
			</output>
		</layer>
		<layer id="273" name="efficientnet-b6/blocks_9/tpu_batch_normalization_2/FusedBatchNormV3/variance/Fused_Add_" type="Add" version="opset1">
			<data auto_broadcast="numpy" />
			<input>
				<port id="0" precision="FP32">
					<dim>1</dim>
					<dim>72</dim>
					<dim>192</dim>
					<dim>192</dim>
				</port>
				<port id="1" precision="FP32">
					<dim>1</dim>
					<dim>72</dim>
					<dim>1</dim>
					<dim>1</dim>
				</port>
			</input>
			<output>
				<port id="2" precision="FP32" names="efficientnet-b6/blocks_9/Identity_2:0,efficientnet-b6/blocks_9/tpu_batch_normalization_2/FusedBatchNormV3:0">
					<dim>1</dim>
					<dim>72</dim>
					<dim>192</dim>
					<dim>192</dim>
				</port>
			</output>
		</layer>
		<layer id="274" name="efficientnet-b6/blocks_10/tpu_batch_normalization/FusedBatchNormV3/mean/Fused_Mul__copy" type="Const" version="opset1">
			<data element_type="f32" shape="432, 72, 1, 1" offset="807376" size="124416" />
			<output>
				<port id="0" precision="FP32" names="efficientnet-b6/blocks_10/conv2d/Conv2D/ReadVariableOp:0">
					<dim>432</dim>
					<dim>72</dim>
					<dim>1</dim>
					<dim>1</dim>
				</port>
			</output>
		</layer>
		<layer id="275" name="efficientnet-b6/blocks_10/conv2d/Conv2D" type="Convolution" version="opset1">
			<data strides="1, 1" dilations="1, 1" pads_begin="0, 0" pads_end="0, 0" auto_pad="same_upper" />
			<input>
				<port id="0" precision="FP32">
					<dim>1</dim>
					<dim>72</dim>
					<dim>192</dim>
					<dim>192</dim>
				</port>
				<port id="1" precision="FP32">
					<dim>432</dim>
					<dim>72</dim>
					<dim>1</dim>
					<dim>1</dim>
				</port>
			</input>
			<output>
				<port id="2" precision="FP32">
					<dim>1</dim>
					<dim>432</dim>
					<dim>192</dim>
					<dim>192</dim>
				</port>
			</output>
		</layer>
		<layer id="276" name="data_add_7923779242" type="Const" version="opset1">
			<data element_type="f32" shape="1, 432, 1, 1" offset="931792" size="1728" />
			<output>
				<port id="0" precision="FP32">
					<dim>1</dim>
					<dim>432</dim>
					<dim>1</dim>
					<dim>1</dim>
				</port>
			</output>
		</layer>
		<layer id="277" name="efficientnet-b6/blocks_10/tpu_batch_normalization/FusedBatchNormV3/variance/Fused_Add_" type="Add" version="opset1">
			<data auto_broadcast="numpy" />
			<input>
				<port id="0" precision="FP32">
					<dim>1</dim>
					<dim>432</dim>
					<dim>192</dim>
					<dim>192</dim>
				</port>
				<port id="1" precision="FP32">
					<dim>1</dim>
					<dim>432</dim>
					<dim>1</dim>
					<dim>1</dim>
				</port>
			</input>
			<output>
				<port id="2" precision="FP32" names="efficientnet-b6/blocks_10/mul:0,efficientnet-b6/blocks_10/tpu_batch_normalization/FusedBatchNormV3:0">
					<dim>1</dim>
					<dim>432</dim>
					<dim>192</dim>
					<dim>192</dim>
				</port>
			</output>
		</layer>
		<layer id="278" name="efficientnet-b6/blocks_10/mul_1" type="Swish" version="opset4">
			<input>
				<port id="0" precision="FP32">
					<dim>1</dim>
					<dim>432</dim>
					<dim>192</dim>
					<dim>192</dim>
				</port>
			</input>
			<output>
				<port id="1" precision="FP32" names="efficientnet-b6/blocks_10/IdentityN:0,efficientnet-b6/blocks_10/mul_1:0">
					<dim>1</dim>
					<dim>432</dim>
					<dim>192</dim>
					<dim>192</dim>
				</port>
			</output>
		</layer>
		<layer id="279" name="efficientnet-b6/blocks_10/tpu_batch_normalization_1/FusedBatchNormV3/mean/Fused_Mul__copy" type="Const" version="opset1">
			<data element_type="f32" shape="432, 1, 1, 5, 5" offset="933520" size="43200" />
			<output>
				<port id="0" precision="FP32" names="efficientnet-b6/blocks_10/depthwise_conv2d/depthwise/ReadVariableOp:0">
					<dim>432</dim>
					<dim>1</dim>
					<dim>1</dim>
					<dim>5</dim>
					<dim>5</dim>
				</port>
			</output>
		</layer>
		<layer id="280" name="efficientnet-b6/blocks_10/depthwise_conv2d/depthwise" type="GroupConvolution" version="opset1">
			<data strides="1, 1" pads_begin="0, 0" pads_end="0, 0" dilations="1, 1" auto_pad="same_upper" />
			<input>
				<port id="0" precision="FP32">
					<dim>1</dim>
					<dim>432</dim>
					<dim>192</dim>
					<dim>192</dim>
				</port>
				<port id="1" precision="FP32">
					<dim>432</dim>
					<dim>1</dim>
					<dim>1</dim>
					<dim>5</dim>
					<dim>5</dim>
				</port>
			</input>
			<output>
				<port id="2" precision="FP32">
					<dim>1</dim>
					<dim>432</dim>
					<dim>192</dim>
					<dim>192</dim>
				</port>
			</output>
		</layer>
		<layer id="281" name="data_add_7924579250" type="Const" version="opset1">
			<data element_type="f32" shape="1, 432, 1, 1" offset="976720" size="1728" />
			<output>
				<port id="0" precision="FP32">
					<dim>1</dim>
					<dim>432</dim>
					<dim>1</dim>
					<dim>1</dim>
				</port>
			</output>
		</layer>
		<layer id="282" name="efficientnet-b6/blocks_10/tpu_batch_normalization_1/FusedBatchNormV3/variance/Fused_Add_" type="Add" version="opset1">
			<data auto_broadcast="numpy" />
			<input>
				<port id="0" precision="FP32">
					<dim>1</dim>
					<dim>432</dim>
					<dim>192</dim>
					<dim>192</dim>
				</port>
				<port id="1" precision="FP32">
					<dim>1</dim>
					<dim>432</dim>
					<dim>1</dim>
					<dim>1</dim>
				</port>
			</input>
			<output>
				<port id="2" precision="FP32" names="efficientnet-b6/blocks_10/mul_2:0,efficientnet-b6/blocks_10/tpu_batch_normalization_1/FusedBatchNormV3:0">
					<dim>1</dim>
					<dim>432</dim>
					<dim>192</dim>
					<dim>192</dim>
				</port>
			</output>
		</layer>
		<layer id="283" name="efficientnet-b6/blocks_10/mul_3" type="Swish" version="opset4">
			<input>
				<port id="0" precision="FP32">
					<dim>1</dim>
					<dim>432</dim>
					<dim>192</dim>
					<dim>192</dim>
				</port>
			</input>
			<output>
				<port id="1" precision="FP32" names="efficientnet-b6/blocks_10/IdentityN_1:0,efficientnet-b6/blocks_10/mul_3:0">
					<dim>1</dim>
					<dim>432</dim>
					<dim>192</dim>
					<dim>192</dim>
				</port>
			</output>
		</layer>
		<layer id="284" name="105404148279" type="Const" version="opset1">
			<data element_type="i64" shape="2" offset="8568" size="16" />
			<output>
				<port id="0" precision="I64">
					<dim>2</dim>
				</port>
			</output>
		</layer>
		<layer id="285" name="efficientnet-b6/blocks_10/se/Mean" type="ReduceMean" version="opset1">
			<data keep_dims="true" />
			<input>
				<port id="0" precision="FP32">
					<dim>1</dim>
					<dim>432</dim>
					<dim>192</dim>
					<dim>192</dim>
				</port>
				<port id="1" precision="I64">
					<dim>2</dim>
				</port>
			</input>
			<output>
				<port id="2" precision="FP32" names="efficientnet-b6/blocks_10/se/Mean:0">
					<dim>1</dim>
					<dim>432</dim>
					<dim>1</dim>
					<dim>1</dim>
				</port>
			</output>
		</layer>
		<layer id="286" name="efficientnet-b6/blocks_10/se/conv2d/Conv2D/ReadVariableOp" type="Const" version="opset1">
			<data element_type="f32" shape="18, 432, 1, 1" offset="978448" size="31104" />
			<output>
				<port id="0" precision="FP32" names="efficientnet-b6/blocks_10/se/conv2d/Conv2D/ReadVariableOp:0">
					<dim>18</dim>
					<dim>432</dim>
					<dim>1</dim>
					<dim>1</dim>
				</port>
			</output>
		</layer>
		<layer id="287" name="efficientnet-b6/blocks_10/se/conv2d/Conv2D" type="Convolution" version="opset1">
			<data strides="1, 1" dilations="1, 1" pads_begin="0, 0" pads_end="0, 0" auto_pad="same_upper" />
			<input>
				<port id="0" precision="FP32">
					<dim>1</dim>
					<dim>432</dim>
					<dim>1</dim>
					<dim>1</dim>
				</port>
				<port id="1" precision="FP32">
					<dim>18</dim>
					<dim>432</dim>
					<dim>1</dim>
					<dim>1</dim>
				</port>
			</input>
			<output>
				<port id="2" precision="FP32" names="efficientnet-b6/blocks_10/se/conv2d/Conv2D:0">
					<dim>1</dim>
					<dim>18</dim>
					<dim>1</dim>
					<dim>1</dim>
				</port>
			</output>
		</layer>
		<layer id="288" name="efficientnet-b6/blocks_10/se/conv2d/BiasAdd/ReadVariableOp" type="Const" version="opset1">
			<data element_type="f32" shape="1, 18, 1, 1" offset="1009552" size="72" />
			<output>
				<port id="0" precision="FP32" names="efficientnet-b6/blocks_10/se/conv2d/BiasAdd/ReadVariableOp:0">
					<dim>1</dim>
					<dim>18</dim>
					<dim>1</dim>
					<dim>1</dim>
				</port>
			</output>
		</layer>
		<layer id="289" name="efficientnet-b6/blocks_10/se/conv2d/BiasAdd/Add" type="Add" version="opset1">
			<data auto_broadcast="numpy" />
			<input>
				<port id="0" precision="FP32">
					<dim>1</dim>
					<dim>18</dim>
					<dim>1</dim>
					<dim>1</dim>
				</port>
				<port id="1" precision="FP32">
					<dim>1</dim>
					<dim>18</dim>
					<dim>1</dim>
					<dim>1</dim>
				</port>
			</input>
			<output>
				<port id="2" precision="FP32" names="efficientnet-b6/blocks_10/se/conv2d/BiasAdd:0,efficientnet-b6/blocks_10/se/mul:0">
					<dim>1</dim>
					<dim>18</dim>
					<dim>1</dim>
					<dim>1</dim>
				</port>
			</output>
		</layer>
		<layer id="290" name="efficientnet-b6/blocks_10/se/mul_1" type="Swish" version="opset4">
			<input>
				<port id="0" precision="FP32">
					<dim>1</dim>
					<dim>18</dim>
					<dim>1</dim>
					<dim>1</dim>
				</port>
			</input>
			<output>
				<port id="1" precision="FP32" names="efficientnet-b6/blocks_10/se/IdentityN:0,efficientnet-b6/blocks_10/se/mul_1:0">
					<dim>1</dim>
					<dim>18</dim>
					<dim>1</dim>
					<dim>1</dim>
				</port>
			</output>
		</layer>
		<layer id="291" name="efficientnet-b6/blocks_10/se/conv2d_1/Conv2D/ReadVariableOp" type="Const" version="opset1">
			<data element_type="f32" shape="432, 18, 1, 1" offset="1009624" size="31104" />
			<output>
				<port id="0" precision="FP32" names="efficientnet-b6/blocks_10/se/conv2d_1/Conv2D/ReadVariableOp:0">
					<dim>432</dim>
					<dim>18</dim>
					<dim>1</dim>
					<dim>1</dim>
				</port>
			</output>
		</layer>
		<layer id="292" name="efficientnet-b6/blocks_10/se/conv2d_1/Conv2D" type="Convolution" version="opset1">
…
		<edge from-layer="2145" from-port="2" to-layer="2201" to-port="0" />
		<edge from-layer="2145" from-port="2" to-layer="2353" to-port="0" />
		<edge from-layer="2145" from-port="2" to-layer="2147" to-port="0" />
		<edge from-layer="2146" from-port="2" to-layer="2148" to-port="0" />
		<edge from-layer="2147" from-port="1" to-layer="2148" to-port="1" />
		<edge from-layer="2148" from-port="2" to-layer="2149" to-port="0" />
		<edge from-layer="2149" from-port="1" to-layer="2151" to-port="0" />
		<edge from-layer="2150" from-port="0" to-layer="2151" to-port="1" />
		<edge from-layer="2151" from-port="2" to-layer="2153" to-port="0" />
		<edge from-layer="2152" from-port="0" to-layer="2153" to-port="1" />
		<edge from-layer="2153" from-port="2" to-layer="2155" to-port="0" />
		<edge from-layer="2154" from-port="0" to-layer="2155" to-port="1" />
		<edge from-layer="2155" from-port="2" to-layer="2156" to-port="0" />
		<edge from-layer="2155" from-port="2" to-layer="2408" to-port="0" />
		<edge from-layer="2155" from-port="2" to-layer="2179" to-port="0" />
		<edge from-layer="2156" from-port="1" to-layer="2157" to-port="1" />
		<edge from-layer="2157" from-port="2" to-layer="2158" to-port="0" />
		<edge from-layer="2158" from-port="1" to-layer="2160" to-port="0" />
		<edge from-layer="2159" from-port="0" to-layer="2160" to-port="1" />
		<edge from-layer="2160" from-port="2" to-layer="2162" to-port="0" />
		<edge from-layer="2161" from-port="0" to-layer="2162" to-port="1" />
		<edge from-layer="2162" from-port="2" to-layer="2164" to-port="0" />
		<edge from-layer="2163" from-port="0" to-layer="2164" to-port="1" />
		<edge from-layer="2164" from-port="2" to-layer="2464" to-port="0" />
		<edge from-layer="2164" from-port="2" to-layer="2178" to-port="0" />
		<edge from-layer="2164" from-port="2" to-layer="2167" to-port="0" />
		<edge from-layer="2165" from-port="0" to-layer="2178" to-port="1" />
		<edge from-layer="2166" from-port="0" to-layer="2176" to-port="0" />
		<edge from-layer="2167" from-port="1" to-layer="2170" to-port="0" />
		<edge from-layer="2168" from-port="0" to-layer="2170" to-port="1" />
		<edge from-layer="2169" from-port="0" to-layer="2170" to-port="2" />
		<edge from-layer="2170" from-port="3" to-layer="2174" to-port="0" />
		<edge from-layer="2171" from-port="0" to-layer="2174" to-port="1" />
		<edge from-layer="2172" from-port="0" to-layer="2174" to-port="2" />
		<edge from-layer="2173" from-port="0" to-layer="2174" to-port="3" />
		<edge from-layer="2174" from-port="4" to-layer="2175" to-port="0" />
		<edge from-layer="2175" from-port="1" to-layer="2176" to-port="1" />
		<edge from-layer="2176" from-port="2" to-layer="2178" to-port="2" />
		<edge from-layer="2177" from-port="0" to-layer="2178" to-port="3" />
		<edge from-layer="2178" from-port="4" to-layer="2179" to-port="1" />
		<edge from-layer="2179" from-port="2" to-layer="2180" to-port="0" />
		<edge from-layer="2180" from-port="1" to-layer="2182" to-port="0" />
		<edge from-layer="2181" from-port="0" to-layer="2182" to-port="1" />
		<edge from-layer="2182" from-port="2" to-layer="2184" to-port="0" />
		<edge from-layer="2183" from-port="0" to-layer="2184" to-port="1" />
		<edge from-layer="2184" from-port="2" to-layer="2186" to-port="0" />
		<edge from-layer="2185" from-port="0" to-layer="2186" to-port="1" />
		<edge from-layer="2186" from-port="2" to-layer="2189" to-port="0" />
		<edge from-layer="2186" from-port="2" to-layer="2408" to-port="1" />
		<edge from-layer="2186" from-port="2" to-layer="2200" to-port="0" />
		<edge from-layer="2187" from-port="0" to-layer="2200" to-port="1" />
		<edge from-layer="2188" from-port="0" to-layer="2198" to-port="0" />
		<edge from-layer="2189" from-port="1" to-layer="2192" to-port="0" />
		<edge from-layer="2190" from-port="0" to-layer="2192" to-port="1" />
		<edge from-layer="2191" from-port="0" to-layer="2192" to-port="2" />
		<edge from-layer="2192" from-port="3" to-layer="2196" to-port="0" />
		<edge from-layer="2193" from-port="0" to-layer="2196" to-port="1" />
		<edge from-layer="2194" from-port="0" to-layer="2196" to-port="2" />
		<edge from-layer="2195" from-port="0" to-layer="2196" to-port="3" />
		<edge from-layer="2196" from-port="4" to-layer="2197" to-port="0" />
		<edge from-layer="2197" from-port="1" to-layer="2198" to-port="1" />
		<edge from-layer="2198" from-port="2" to-layer="2200" to-port="2" />
		<edge from-layer="2199" from-port="0" to-layer="2200" to-port="3" />
		<edge from-layer="2200" from-port="4" to-layer="2201" to-port="1" />
		<edge from-layer="2201" from-port="2" to-layer="2202" to-port="0" />
		<edge from-layer="2202" from-port="1" to-layer="2204" to-port="0" />
		<edge from-layer="2203" from-port="0" to-layer="2204" to-port="1" />
		<edge from-layer="2204" from-port="2" to-layer="2206" to-port="0" />
		<edge from-layer="2205" from-port="0" to-layer="2206" to-port="1" />
		<edge from-layer="2206" from-port="2" to-layer="2208" to-port="0" />
		<edge from-layer="2207" from-port="0" to-layer="2208" to-port="1" />
		<edge from-layer="2208" from-port="2" to-layer="2211" to-port="0" />
		<edge from-layer="2208" from-port="2" to-layer="2222" to-port="0" />
		<edge from-layer="2208" from-port="2" to-layer="2353" to-port="1" />
		<edge from-layer="2209" from-port="0" to-layer="2222" to-port="1" />
		<edge from-layer="2210" from-port="0" to-layer="2220" to-port="0" />
		<edge from-layer="2211" from-port="1" to-layer="2214" to-port="0" />
		<edge from-layer="2212" from-port="0" to-layer="2214" to-port="1" />
		<edge from-layer="2213" from-port="0" to-layer="2214" to-port="2" />
		<edge from-layer="2214" from-port="3" to-layer="2218" to-port="0" />
		<edge from-layer="2215" from-port="0" to-layer="2218" to-port="1" />
		<edge from-layer="2216" from-port="0" to-layer="2218" to-port="2" />
		<edge from-layer="2217" from-port="0" to-layer="2218" to-port="3" />
		<edge from-layer="2218" from-port="4" to-layer="2219" to-port="0" />
		<edge from-layer="2219" from-port="1" to-layer="2220" to-port="1" />
		<edge from-layer="2220" from-port="2" to-layer="2222" to-port="2" />
		<edge from-layer="2221" from-port="0" to-layer="2222" to-port="3" />
		<edge from-layer="2222" from-port="4" to-layer="2223" to-port="1" />
		<edge from-layer="2223" from-port="2" to-layer="2224" to-port="0" />
		<edge from-layer="2224" from-port="1" to-layer="2226" to-port="0" />
		<edge from-layer="2225" from-port="0" to-layer="2226" to-port="1" />
		<edge from-layer="2226" from-port="2" to-layer="2228" to-port="0" />
		<edge from-layer="2227" from-port="0" to-layer="2228" to-port="1" />
		<edge from-layer="2228" from-port="2" to-layer="2230" to-port="0" />
		<edge from-layer="2229" from-port="0" to-layer="2230" to-port="1" />
		<edge from-layer="2230" from-port="2" to-layer="2233" to-port="0" />
		<edge from-layer="2230" from-port="2" to-layer="2298" to-port="1" />
		<edge from-layer="2230" from-port="2" to-layer="2244" to-port="0" />
		<edge from-layer="2231" from-port="0" to-layer="2244" to-port="1" />
		<edge from-layer="2232" from-port="0" to-layer="2242" to-port="0" />
		<edge from-layer="2233" from-port="1" to-layer="2236" to-port="0" />
		<edge from-layer="2234" from-port="0" to-layer="2236" to-port="1" />
		<edge from-layer="2235" from-port="0" to-layer="2236" to-port="2" />
		<edge from-layer="2236" from-port="3" to-layer="2240" to-port="0" />
		<edge from-layer="2237" from-port="0" to-layer="2240" to-port="1" />
		<edge from-layer="2238" from-port="0" to-layer="2240" to-port="2" />
		<edge from-layer="2239" from-port="0" to-layer="2240" to-port="3" />
		<edge from-layer="2240" from-port="4" to-layer="2241" to-port="0" />
		<edge from-layer="2241" from-port="1" to-layer="2242" to-port="1" />
		<edge from-layer="2242" from-port="2" to-layer="2244" to-port="2" />
		<edge from-layer="2243" from-port="0" to-layer="2244" to-port="3" />
		<edge from-layer="2244" from-port="4" to-layer="2245" to-port="1" />
		<edge from-layer="2245" from-port="2" to-layer="2246" to-port="0" />
		<edge from-layer="2246" from-port="1" to-layer="2248" to-port="0" />
		<edge from-layer="2247" from-port="0" to-layer="2248" to-port="1" />
		<edge from-layer="2248" from-port="2" to-layer="2250" to-port="0" />
		<edge from-layer="2249" from-port="0" to-layer="2250" to-port="1" />
		<edge from-layer="2250" from-port="2" to-layer="2252" to-port="0" />
		<edge from-layer="2251" from-port="0" to-layer="2252" to-port="1" />
		<edge from-layer="2252" from-port="2" to-layer="2299" to-port="0" />
		<edge from-layer="2252" from-port="2" to-layer="2254" to-port="0" />
		<edge from-layer="2252" from-port="2" to-layer="2521" to-port="0" />
		<edge from-layer="2253" from-port="0" to-layer="2254" to-port="1" />
		<edge from-layer="2254" from-port="2" to-layer="2256" to-port="0" />
		<edge from-layer="2255" from-port="0" to-layer="2256" to-port="1" />
		<edge from-layer="2256" from-port="2" to-layer="2258" to-port="0" />
		<edge from-layer="2257" from-port="0" to-layer="2258" to-port="1" />
		<edge from-layer="2258" from-port="2" to-layer="2259" to-port="0" />
		<edge from-layer="2259" from-port="1" to-layer="2261" to-port="0" />
		<edge from-layer="2260" from-port="0" to-layer="2261" to-port="1" />
		<edge from-layer="2261" from-port="2" to-layer="2263" to-port="0" />
		<edge from-layer="2262" from-port="0" to-layer="2263" to-port="1" />
		<edge from-layer="2263" from-port="2" to-layer="2265" to-port="0" />
		<edge from-layer="2264" from-port="0" to-layer="2265" to-port="1" />
		<edge from-layer="2265" from-port="2" to-layer="2266" to-port="0" />
		<edge from-layer="2266" from-port="1" to-layer="2268" to-port="0" />
		<edge from-layer="2267" from-port="0" to-layer="2268" to-port="1" />
		<edge from-layer="2268" from-port="2" to-layer="2270" to-port="0" />
		<edge from-layer="2269" from-port="0" to-layer="2270" to-port="1" />
		<edge from-layer="2270" from-port="2" to-layer="2272" to-port="0" />
		<edge from-layer="2271" from-port="0" to-layer="2272" to-port="1" />
		<edge from-layer="2272" from-port="2" to-layer="2273" to-port="0" />
		<edge from-layer="2273" from-port="1" to-layer="2275" to-port="0" />
		<edge from-layer="2274" from-port="0" to-layer="2275" to-port="1" />
		<edge from-layer="2275" from-port="2" to-layer="2277" to-port="0" />
		<edge from-layer="2276" from-port="0" to-layer="2277" to-port="1" />
		<edge from-layer="2277" from-port="2" to-layer="2279" to-port="0" />
		<edge from-layer="2278" from-port="0" to-layer="2279" to-port="1" />
		<edge from-layer="2279" from-port="2" to-layer="2280" to-port="0" />
		<edge from-layer="2280" from-port="1" to-layer="2282" to-port="0" />
		<edge from-layer="2281" from-port="0" to-layer="2282" to-port="1" />
		<edge from-layer="2282" from-port="2" to-layer="2284" to-port="0" />
		<edge from-layer="2283" from-port="0" to-layer="2284" to-port="1" />
		<edge from-layer="2284" from-port="2" to-layer="2286" to-port="0" />
		<edge from-layer="2285" from-port="0" to-layer="2286" to-port="1" />
		<edge from-layer="2286" from-port="2" to-layer="2287" to-port="0" />
		<edge from-layer="2287" from-port="1" to-layer="2289" to-port="0" />
		<edge from-layer="2288" from-port="0" to-layer="2289" to-port="1" />
		<edge from-layer="2289" from-port="2" to-layer="2291" to-port="0" />
		<edge from-layer="2290" from-port="0" to-layer="2291" to-port="1" />
		<edge from-layer="2291" from-port="2" to-layer="2293" to-port="0" />
		<edge from-layer="2292" from-port="0" to-layer="2293" to-port="1" />
		<edge from-layer="2293" from-port="2" to-layer="2749" to-port="0" />
		<edge from-layer="2293" from-port="2" to-layer="2295" to-port="0" />
		<edge from-layer="2294" from-port="0" to-layer="2295" to-port="1" />
		<edge from-layer="2295" from-port="2" to-layer="2297" to-port="0" />
		<edge from-layer="2296" from-port="0" to-layer="2297" to-port="1" />
		<edge from-layer="2297" from-port="2" to-layer="2517" to-port="0" />
		<edge from-layer="2298" from-port="2" to-layer="2300" to-port="0" />
		<edge from-layer="2299" from-port="1" to-layer="2300" to-port="1" />
		<edge from-layer="2300" from-port="2" to-layer="2301" to-port="0" />
		<edge from-layer="2301" from-port="1" to-layer="2303" to-port="0" />
		<edge from-layer="2302" from-port="0" to-layer="2303" to-port="1" />
		<edge from-layer="2303" from-port="2" to-layer="2305" to-port="0" />
		<edge from-layer="2304" from-port="0" to-layer="2305" to-port="1" />
		<edge from-layer="2305" from-port="2" to-layer="2307" to-port="0" />
		<edge from-layer="2306" from-port="0" to-layer="2307" to-port="1" />
		<edge from-layer="2307" from-port="2" to-layer="2309" to-port="0" />
		<edge from-layer="2307" from-port="2" to-layer="2566" to-port="0" />
		<edge from-layer="2307" from-port="2" to-layer="2354" to-port="0" />
		<edge from-layer="2308" from-port="0" to-layer="2309" to-port="1" />
		<edge from-layer="2309" from-port="2" to-layer="2311" to-port="0" />
		<edge from-layer="2310" from-port="0" to-layer="2311" to-port="1" />
		<edge from-layer="2311" from-port="2" to-layer="2313" to-port="0" />
		<edge from-layer="2312" from-port="0" to-layer="2313" to-port="1" />
		<edge from-layer="2313" from-port="2" to-layer="2314" to-port="0" />
		<edge from-layer="2314" from-port="1" to-layer="2316" to-port="0" />
		<edge from-layer="2315" from-port="0" to-layer="2316" to-port="1" />
		<edge from-layer="2316" from-port="2" to-layer="2318" to-port="0" />
		<edge from-layer="2317" from-port="0" to-layer="2318" to-port="1" />
		<edge from-layer="2318" from-port="2" to-layer="2320" to-port="0" />
		<edge from-layer="2319" from-port="0" to-layer="2320" to-port="1" />
		<edge from-layer="2320" from-port="2" to-layer="2321" to-port="0" />
		<edge from-layer="2321" from-port="1" to-layer="2323" to-port="0" />
		<edge from-layer="2322" from-port="0" to-layer="2323" to-port="1" />
		<edge from-layer="2323" from-port="2" to-layer="2325" to-port="0" />
		<edge from-layer="2324" from-port="0" to-layer="2325" to-port="1" />
		<edge from-layer="2325" from-port="2" to-layer="2327" to-port="0" />
		<edge from-layer="2326" from-port="0" to-layer="2327" to-port="1" />
		<edge from-layer="2327" from-port="2" to-layer="2328" to-port="0" />
		<edge from-layer="2328" from-port="1" to-layer="2330" to-port="0" />
		<edge from-layer="2329" from-port="0" to-layer="2330" to-port="1" />
		<edge from-layer="2330" from-port="2" to-layer="2332" to-port="0" />
		<edge from-layer="2331" from-port="0" to-layer="2332" to-port="1" />
		<edge from-layer="2332" from-port="2" to-layer="2334" to-port="0" />
		<edge from-layer="2333" from-port="0" to-layer="2334" to-port="1" />
		<edge from-layer="2334" from-port="2" to-layer="2335" to-port="0" />
		<edge from-layer="2335" from-port="1" to-layer="2337" to-port="0" />
		<edge from-layer="2336" from-port="0" to-layer="2337" to-port="1" />
		<edge from-layer="2337" from-port="2" to-layer="2339" to-port="0" />
		<edge from-layer="2338" from-port="0" to-layer="2339" to-port="1" />
		<edge from-layer="2339" from-port="2" to-layer="2341" to-port="0" />
		<edge from-layer="2340" from-port="0" to-layer="2341" to-port="1" />
		<edge from-layer="2341" from-port="2" to-layer="2342" to-port="0" />
		<edge from-layer="2342" from-port="1" to-layer="2344" to-port="0" />
		<edge from-layer="2343" from-port="0" to-layer="2344" to-port="1" />
		<edge from-layer="2344" from-port="2" to-layer="2346" to-port="0" />
		<edge from-layer="2345" from-port="0" to-layer="2346" to-port="1" />
		<edge from-layer="2346" from-port="2" to-layer="2348" to-port="0" />
		<edge from-layer="2347" from-port="0" to-layer="2348" to-port="1" />
		<edge from-layer="2348" from-port="2" to-layer="2350" to-port="0" />
		<edge from-layer="2348" from-port="2" to-layer="2762" to-port="0" />
		<edge from-layer="2349" from-port="0" to-layer="2350" to-port="1" />
		<edge from-layer="2350" from-port="2" to-layer="2352" to-port="0" />
		<edge from-layer="2351" from-port="0" to-layer="2352" to-port="1" />
		<edge from-layer="2352" from-port="2" to-layer="2517" to-port="1" />
		<edge from-layer="2353" from-port="2" to-layer="2355" to-port="0" />
		<edge from-layer="2354" from-port="1" to-layer="2355" to-port="1" />
		<edge from-layer="2355" from-port="2" to-layer="2356" to-port="0" />
		<edge from-layer="2356" from-port="1" to-layer="2358" to-port="0" />
		<edge from-layer="2357" from-port="0" to-layer="2358" to-port="1" />
		<edge from-layer="2358" from-port="2" to-layer="2360" to-port="0" />
		<edge from-layer="2359" from-port="0" to-layer="2360" to-port="1" />
		<edge from-layer="2360" from-port="2" to-layer="2362" to-port="0" />
		<edge from-layer="2361" from-port="0" to-layer="2362" to-port="1" />
		<edge from-layer="2362" from-port="2" to-layer="2611" to-port="0" />
		<edge from-layer="2362" from-port="2" to-layer="2364" to-port="0" />
		<edge from-layer="2362" from-port="2" to-layer="2409" to-port="0" />
		<edge from-layer="2363" from-port="0" to-layer="2364" to-port="1" />
		<edge from-layer="2364" from-port="2" to-layer="2366" to-port="0" />
		<edge from-layer="2365" from-port="0" to-layer="2366" to-port="1" />
		<edge from-layer="2366" from-port="2" to-layer="2368" to-port="0" />
		<edge from-layer="2367" from-port="0" to-layer="2368" to-port="1" />
		<edge from-layer="2368" from-port="2" to-layer="2369" to-port="0" />
		<edge from-layer="2369" from-port="1" to-layer="2371" to-port="0" />
		<edge from-layer="2370" from-port="0" to-layer="2371" to-port="1" />
		<edge from-layer="2371" from-port="2" to-layer="2373" to-port="0" />
		<edge from-layer="2372" from-port="0" to-layer="2373" to-port="1" />
		<edge from-layer="2373" from-port="2" to-layer="2375" to-port="0" />
		<edge from-layer="2374" from-port="0" to-layer="2375" to-port="1" />
		<edge from-layer="2375" from-port="2" to-layer="2376" to-port="0" />
		<edge from-layer="2376" from-port="1" to-layer="2378" to-port="0" />
		<edge from-layer="2377" from-port="0" to-layer="2378" to-port="1" />
		<edge from-layer="2378" from-port="2" to-layer="2380" to-port="0" />
		<edge from-layer="2379" from-port="0" to-layer="2380" to-port="1" />
		<edge from-layer="2380" from-port="2" to-layer="2382" to-port="0" />
		<edge from-layer="2381" from-port="0" to-layer="2382" to-port="1" />
		<edge from-layer="2382" from-port="2" to-layer="2383" to-port="0" />
		<edge from-layer="2383" from-port="1" to-layer="2385" to-port="0" />
		<edge from-layer="2384" from-port="0" to-layer="2385" to-port="1" />
		<edge from-layer="2385" from-port="2" to-layer="2387" to-port="0" />
		<edge from-layer="2386" from-port="0" to-layer="2387" to-port="1" />
		<edge from-layer="2387" from-port="2" to-layer="2389" to-port="0" />
		<edge from-layer="2388" from-port="0" to-layer="2389" to-port="1" />
		<edge from-layer="2389" from-port="2" to-layer="2390" to-port="0" />
		<edge from-layer="2390" from-port="1" to-layer="2392" to-port="0" />
		<edge from-layer="2391" from-port="0" to-layer="2392" to-port="1" />
		<edge from-layer="2392" from-port="2" to-layer="2394" to-port="0" />
		<edge from-layer="2393" from-port="0" to-layer="2394" to-port="1" />
		<edge from-layer="2394" from-port="2" to-layer="2396" to-port="0" />
		<edge from-layer="2395" from-port="0" to-layer="2396" to-port="1" />
		<edge from-layer="2396" from-port="2" to-layer="2397" to-port="0" />
		<edge from-layer="2397" from-port="1" to-layer="2399" to-port="0" />
		<edge from-layer="2398" from-port="0" to-layer="2399" to-port="1" />
		<edge from-layer="2399" from-port="2" to-layer="2401" to-port="0" />
		<edge from-layer="2400" from-port="0" to-layer="2401" to-port="1" />
		<edge from-layer="2401" from-port="2" to-layer="2403" to-port="0" />
		<edge from-layer="2402" from-port="0" to-layer="2403" to-port="1" />
		<edge from-layer="2403" from-port="2" to-layer="2405" to-port="0" />
		<edge from-layer="2403" from-port="2" to-layer="2774" to-port="0" />
		<edge from-layer="2404" from-port="0" to-layer="2405" to-port="1" />
		<edge from-layer="2405" from-port="2" to-layer="2407" to-port="0" />
		<edge from-layer="2406" from-port="0" to-layer="2407" to-port="1" />
		<edge from-layer="2407" from-port="2" to-layer="2517" to-port="2" />
		<edge from-layer="2408" from-port="2" to-layer="2410" to-port="0" />
		<edge from-layer="2409" from-port="1" to-layer="2410" to-port="1" />
		<edge from-layer="2410" from-port="2" to-layer="2411" to-port="0" />
		<edge from-layer="2411" from-port="1" to-layer="2413" to-port="0" />
		<edge from-layer="2412" from-port="0" to-layer="2413" to-port="1" />
		<edge from-layer="2413" from-port="2" to-layer="2415" to-port="0" />
		<edge from-layer="2414" from-port="0" to-layer="2415" to-port="1" />
		<edge from-layer="2415" from-port="2" to-layer="2417" to-port="0" />
		<edge from-layer="2416" from-port="0" to-layer="2417" to-port="1" />
		<edge from-layer="2417" from-port="2" to-layer="2656" to-port="0" />
		<edge from-layer="2417" from-port="2" to-layer="2419" to-port="0" />
		<edge from-layer="2417" from-port="2" to-layer="2463" to-port="0" />
		<edge from-layer="2418" from-port="0" to-layer="2419" to-port="1" />
		<edge from-layer="2419" from-port="2" to-layer="2421" to-port="0" />
		<edge from-layer="2420" from-port="0" to-layer="2421" to-port="1" />
		<edge from-layer="2421" from-port="2" to-layer="2423" to-port="0" />
		<edge from-layer="2422" from-port="0" to-layer="2423" to-port="1" />
		<edge from-layer="2423" from-port="2" to-layer="2424" to-port="0" />
		<edge from-layer="2424" from-port="1" to-layer="2426" to-port="0" />
		<edge from-layer="2425" from-port="0" to-layer="2426" to-port="1" />
		<edge from-layer="2426" from-port="2" to-layer="2428" to-port="0" />
		<edge from-layer="2427" from-port="0" to-layer="2428" to-port="1" />
		<edge from-layer="2428" from-port="2" to-layer="2430" to-port="0" />
		<edge from-layer="2429" from-port="0" to-layer="2430" to-port="1" />
		<edge from-layer="2430" from-port="2" to-layer="2431" to-port="0" />
		<edge from-layer="2431" from-port="1" to-layer="2433" to-port="0" />
		<edge from-layer="2432" from-port="0" to-layer="2433" to-port="1" />
		<edge from-layer="2433" from-port="2" to-layer="2435" to-port="0" />
		<edge from-layer="2434" from-port="0" to-layer="2435" to-port="1" />
		<edge from-layer="2435" from-port="2" to-layer="2437" to-port="0" />
		<edge from-layer="2436" from-port="0" to-layer="2437" to-port="1" />
		<edge from-layer="2437" from-port="2" to-layer="2438" to-port="0" />
		<edge from-layer="2438" from-port="1" to-layer="2440" to-port="0" />
		<edge from-layer="2439" from-port="0" to-layer="2440" to-port="1" />
		<edge from-layer="2440" from-port="2" to-layer="2442" to-port="0" />
		<edge from-layer="2441" from-port="0" to-layer="2442" to-port="1" />
		<edge from-layer="2442" from-port="2" to-layer="2444" to-port="0" />
		<edge from-layer="2443" from-port="0" to-layer="2444" to-port="1" />
		<edge from-layer="2444" from-port="2" to-layer="2445" to-port="0" />
		<edge from-layer="2445" from-port="1" to-layer="2447" to-port="0" />
		<edge from-layer="2446" from-port="0" to-layer="2447" to-port="1" />
		<edge from-layer="2447" from-port="2" to-layer="2449" to-port="0" />
		<edge from-layer="2448" from-port="0" to-layer="2449" to-port="1" />
		<edge from-layer="2449" from-port="2" to-layer="2451" to-port="0" />
		<edge from-layer="2450" from-port="0" to-layer="2451" to-port="1" />
		<edge from-layer="2451" from-port="2" to-layer="2452" to-port="0" />
		<edge from-layer="2452" from-port="1" to-layer="2454" to-port="0" />
		<edge from-layer="2453" from-port="0" to-layer="2454" to-port="1" />
		<edge from-layer="2454" from-port="2" to-layer="2456" to-port="0" />
		<edge from-layer="2455" from-port="0" to-layer="2456" to-port="1" />
		<edge from-layer="2456" from-port="2" to-layer="2458" to-port="0" />
		<edge from-layer="2457" from-port="0" to-layer="2458" to-port="1" />
		<edge from-layer="2458" from-port="2" to-layer="2786" to-port="0" />
		<edge from-layer="2458" from-port="2" to-layer="2460" to-port="0" />
		<edge from-layer="2459" from-port="0" to-layer="2460" to-port="1" />
		<edge from-layer="2460" from-port="2" to-layer="2462" to-port="0" />
		<edge from-layer="2461" from-port="0" to-layer="2462" to-port="1" />
		<edge from-layer="2462" from-port="2" to-layer="2517" to-port="3" />
		<edge from-layer="2463" from-port="1" to-layer="2464" to-port="1" />
		<edge from-layer="2464" from-port="2" to-layer="2465" to-port="0" />
		<edge from-layer="2465" from-port="1" to-layer="2467" to-port="0" />
		<edge from-layer="2466" from-port="0" to-layer="2467" to-port="1" />
		<edge from-layer="2467" from-port="2" to-layer="2469" to-port="0" />
		<edge from-layer="2468" from-port="0" to-layer="2469" to-port="1" />
		<edge from-layer="2469" from-port="2" to-layer="2471" to-port="0" />
		<edge from-layer="2470" from-port="0" to-layer="2471" to-port="1" />
		<edge from-layer="2471" from-port="2" to-layer="2701" to-port="0" />
		<edge from-layer="2471" from-port="2" to-layer="2473" to-port="0" />
		<edge from-layer="2472" from-port="0" to-layer="2473" to-port="1" />
		<edge from-layer="2473" from-port="2" to-layer="2475" to-port="0" />
		<edge from-layer="2474" from-port="0" to-layer="2475" to-port="1" />
		<edge from-layer="2475" from-port="2" to-layer="2477" to-port="0" />
		<edge from-layer="2476" from-port="0" to-layer="2477" to-port="1" />
		<edge from-layer="2477" from-port="2" to-layer="2478" to-port="0" />
		<edge from-layer="2478" from-port="1" to-layer="2480" to-port="0" />
		<edge from-layer="2479" from-port="0" to-layer="2480" to-port="1" />
		<edge from-layer="2480" from-port="2" to-layer="2482" to-port="0" />
		<edge from-layer="2481" from-port="0" to-layer="2482" to-port="1" />
		<edge from-layer="2482" from-port="2" to-layer="2484" to-port="0" />
		<edge from-layer="2483" from-port="0" to-layer="2484" to-port="1" />
		<edge from-layer="2484" from-port="2" to-layer="2485" to-port="0" />
		<edge from-layer="2485" from-port="1" to-layer="2487" to-port="0" />
		<edge from-layer="2486" from-port="0" to-layer="2487" to-port="1" />
		<edge from-layer="2487" from-port="2" to-layer="2489" to-port="0" />
		<edge from-layer="2488" from-port="0" to-layer="2489" to-port="1" />
		<edge from-layer="2489" from-port="2" to-layer="2491" to-port="0" />
		<edge from-layer="2490" from-port="0" to-layer="2491" to-port="1" />
		<edge from-layer="2491" from-port="2" to-layer="2492" to-port="0" />
		<edge from-layer="2492" from-port="1" to-layer="2494" to-port="0" />
		<edge from-layer="2493" from-port="0" to-layer="2494" to-port="1" />
		<edge from-layer="2494" from-port="2" to-layer="2496" to-port="0" />
		<edge from-layer="2495" from-port="0" to-layer="2496" to-port="1" />
		<edge from-layer="2496" from-port="2" to-layer="2498" to-port="0" />
		<edge from-layer="2497" from-port="0" to-layer="2498" to-port="1" />
		<edge from-layer="2498" from-port="2" to-layer="2499" to-port="0" />
		<edge from-layer="2499" from-port="1" to-layer="2501" to-port="0" />
		<edge from-layer="2500" from-port="0" to-layer="2501" to-port="1" />
		<edge from-layer="2501" from-port="2" to-layer="2503" to-port="0" />
		<edge from-layer="2502" from-port="0" to-layer="2503" to-port="1" />
		<edge from-layer="2503" from-port="2" to-layer="2505" to-port="0" />
		<edge from-layer="2504" from-port="0" to-layer="2505" to-port="1" />
		<edge from-layer="2505" from-port="2" to-layer="2506" to-port="0" />
		<edge from-layer="2506" from-port="1" to-layer="2508" to-port="0" />
		<edge from-layer="2507" from-port="0" to-layer="2508" to-port="1" />
		<edge from-layer="2508" from-port="2" to-layer="2510" to-port="0" />
		<edge from-layer="2509" from-port="0" to-layer="2510" to-port="1" />
		<edge from-layer="2510" from-port="2" to-layer="2512" to-port="0" />
		<edge from-layer="2511" from-port="0" to-layer="2512" to-port="1" />
		<edge from-layer="2512" from-port="2" to-layer="2798" to-port="0" />
		<edge from-layer="2512" from-port="2" to-layer="2514" to-port="0" />
		<edge from-layer="2513" from-port="0" to-layer="2514" to-port="1" />
		<edge from-layer="2514" from-port="2" to-layer="2516" to-port="0" />
		<edge from-layer="2515" from-port="0" to-layer="2516" to-port="1" />
		<edge from-layer="2516" from-port="2" to-layer="2517" to-port="4" />
		<edge from-layer="2517" from-port="5" to-layer="2519" to-port="0" />
		<edge from-layer="2518" from-port="0" to-layer="2519" to-port="1" />
		<edge from-layer="2519" from-port="2" to-layer="2811" to-port="0" />
		<edge from-layer="2520" from-port="0" to-layer="2521" to-port="1" />
		<edge from-layer="2521" from-port="2" to-layer="2523" to-port="0" />
		<edge from-layer="2522" from-port="0" to-layer="2523" to-port="1" />
		<edge from-layer="2523" from-port="2" to-layer="2525" to-port="0" />
		<edge from-layer="2524" from-port="0" to-layer="2525" to-port="1" />
		<edge from-layer="2525" from-port="2" to-layer="2526" to-port="0" />
		<edge from-layer="2526" from-port="1" to-layer="2528" to-port="0" />
		<edge from-layer="2527" from-port="0" to-layer="2528" to-port="1" />
		<edge from-layer="2528" from-port="2" to-layer="2530" to-port="0" />
		<edge from-layer="2529" from-port="0" to-layer="2530" to-port="1" />
		<edge from-layer="2530" from-port="2" to-layer="2532" to-port="0" />
		<edge from-layer="2531" from-port="0" to-layer="2532" to-port="1" />
		<edge from-layer="2532" from-port="2" to-layer="2533" to-port="0" />
		<edge from-layer="2533" from-port="1" to-layer="2535" to-port="0" />
		<edge from-layer="2534" from-port="0" to-layer="2535" to-port="1" />
		<edge from-layer="2535" from-port="2" to-layer="2537" to-port="0" />
		<edge from-layer="2536" from-port="0" to-layer="2537" to-port="1" />
		<edge from-layer="2537" from-port="2" to-layer="2539" to-port="0" />
		<edge from-layer="2538" from-port="0" to-layer="2539" to-port="1" />
		<edge from-layer="2539" from-port="2" to-layer="2540" to-port="0" />
		<edge from-layer="2540" from-port="1" to-layer="2542" to-port="0" />
		<edge from-layer="2541" from-port="0" to-layer="2542" to-port="1" />
		<edge from-layer="2542" from-port="2" to-layer="2544" to-port="0" />
		<edge from-layer="2543" from-port="0" to-layer="2544" to-port="1" />
		<edge from-layer="2544" from-port="2" to-layer="2546" to-port="0" />
		<edge from-layer="2545" from-port="0" to-layer="2546" to-port="1" />
		<edge from-layer="2546" from-port="2" to-layer="2547" to-port="0" />
		<edge from-layer="2547" from-port="1" to-layer="2549" to-port="0" />
		<edge from-layer="2548" from-port="0" to-layer="2549" to-port="1" />
		<edge from-layer="2549" from-port="2" to-layer="2551" to-port="0" />
		<edge from-layer="2550" from-port="0" to-layer="2551" to-port="1" />
		<edge from-layer="2551" from-port="2" to-layer="2553" to-port="0" />
		<edge from-layer="2552" from-port="0" to-layer="2553" to-port="1" />
		<edge from-layer="2553" from-port="2" to-layer="2554" to-port="0" />
		<edge from-layer="2554" from-port="1" to-layer="2556" to-port="0" />
		<edge from-layer="2555" from-port="0" to-layer="2556" to-port="1" />
		<edge from-layer="2556" from-port="2" to-layer="2558" to-port="0" />
		<edge from-layer="2557" from-port="0" to-layer="2558" to-port="1" />
		<edge from-layer="2558" from-port="2" to-layer="2560" to-port="0" />
		<edge from-layer="2559" from-port="0" to-layer="2560" to-port="1" />
		<edge from-layer="2560" from-port="2" to-layer="2562" to-port="0" />
		<edge from-layer="2561" from-port="0" to-layer="2562" to-port="1" />
		<edge from-layer="2562" from-port="2" to-layer="2564" to-port="0" />
		<edge from-layer="2563" from-port="0" to-layer="2564" to-port="1" />
		<edge from-layer="2564" from-port="2" to-layer="2745" to-port="0" />
		<edge from-layer="2565" from-port="0" to-layer="2566" to-port="1" />
		<edge from-layer="2566" from-port="2" to-layer="2568" to-port="0" />
		<edge from-layer="2567" from-port="0" to-layer="2568" to-port="1" />
		<edge from-layer="2568" from-port="2" to-layer="2570" to-port="0" />
		<edge from-layer="2569" from-port="0" to-layer="2570" to-port="1" />
		<edge from-layer="2570" from-port="2" to-layer="2571" to-port="0" />
		<edge from-layer="2571" from-port="1" to-layer="2573" to-port="0" />
		<edge from-layer="2572" from-port="0" to-layer="2573" to-port="1" />
		<edge from-layer="2573" from-port="2" to-layer="2575" to-port="0" />
		<edge from-layer="2574" from-port="0" to-layer="2575" to-port="1" />
		<edge from-layer="2575" from-port="2" to-layer="2577" to-port="0" />
		<edge from-layer="2576" from-port="0" to-layer="2577" to-port="1" />
		<edge from-layer="2577" from-port="2" to-layer="2578" to-port="0" />
		<edge from-layer="2578" from-port="1" to-layer="2580" to-port="0" />
		<edge from-layer="2579" from-port="0" to-layer="2580" to-port="1" />
		<edge from-layer="2580" from-port="2" to-layer="2582" to-port="0" />
		<edge from-layer="2581" from-port="0" to-layer="2582" to-port="1" />
		<edge from-layer="2582" from-port="2" to-layer="2584" to-port="0" />
		<edge from-layer="2583" from-port="0" to-layer="2584" to-port="1" />
		<edge from-layer="2584" from-port="2" to-layer="2585" to-port="0" />
		<edge from-layer="2585" from-port="1" to-layer="2587" to-port="0" />
		<edge from-layer="2586" from-port="0" to-layer="2587" to-port="1" />
		<edge from-layer="2587" from-port="2" to-layer="2589" to-port="0" />
		<edge from-layer="2588" from-port="0" to-layer="2589" to-port="1" />
		<edge from-layer="2589" from-port="2" to-layer="2591" to-port="0" />
		<edge from-layer="2590" from-port="0" to-layer="2591" to-port="1" />
		<edge from-layer="2591" from-port="2" to-layer="2592" to-port="0" />
		<edge from-layer="2592" from-port="1" to-layer="2594" to-port="0" />
		<edge from-layer="2593" from-port="0" to-layer="2594" to-port="1" />
		<edge from-layer="2594" from-port="2" to-layer="2596" to-port="0" />
		<edge from-layer="2595" from-port="0" to-layer="2596" to-port="1" />
		<edge from-layer="2596" from-port="2" to-layer="2598" to-port="0" />
		<edge from-layer="2597" from-port="0" to-layer="2598" to-port="1" />
		<edge from-layer="2598" from-port="2" to-layer="2599" to-port="0" />
		<edge from-layer="2599" from-port="1" to-layer="2601" to-port="0" />
		<edge from-layer="2600" from-port="0" to-layer="2601" to-port="1" />
		<edge from-layer="2601" from-port="2" to-layer="2603" to-port="0" />
		<edge from-layer="2602" from-port="0" to-layer="2603" to-port="1" />
		<edge from-layer="2603" from-port="2" to-layer="2605" to-port="0" />
		<edge from-layer="2604" from-port="0" to-layer="2605" to-port="1" />
		<edge from-layer="2605" from-port="2" to-layer="2607" to-port="0" />
		<edge from-layer="2606" from-port="0" to-layer="2607" to-port="1" />
		<edge from-layer="2607" from-port="2" to-layer="2609" to-port="0" />
		<edge from-layer="2608" from-port="0" to-layer="2609" to-port="1" />
		<edge from-layer="2609" from-port="2" to-layer="2745" to-port="1" />
		<edge from-layer="2610" from-port="0" to-layer="2611" to-port="1" />
		<edge from-layer="2611" from-port="2" to-layer="2613" to-port="0" />
		<edge from-layer="2612" from-port="0" to-layer="2613" to-port="1" />
		<edge from-layer="2613" from-port="2" to-layer="2615" to-port="0" />
		<edge from-layer="2614" from-port="0" to-layer="2615" to-port="1" />
		<edge from-layer="2615" from-port="2" to-layer="2616" to-port="0" />
		<edge from-layer="2616" from-port="1" to-layer="2618" to-port="0" />
		<edge from-layer="2617" from-port="0" to-layer="2618" to-port="1" />
		<edge from-layer="2618" from-port="2" to-layer="2620" to-port="0" />
		<edge from-layer="2619" from-port="0" to-layer="2620" to-port="1" />
		<edge from-layer="2620" from-port="2" to-layer="2622" to-port="0" />
		<edge from-layer="2621" from-port="0" to-layer="2622" to-port="1" />
		<edge from-layer="2622" from-port="2" to-layer="2623" to-port="0" />
		<edge from-layer="2623" from-port="1" to-layer="2625" to-port="0" />
		<edge from-layer="2624" from-port="0" to-layer="2625" to-port="1" />
		<edge from-layer="2625" from-port="2" to-layer="2627" to-port="0" />
		<edge from-layer="2626" from-port="0" to-layer="2627" to-port="1" />
		<edge from-layer="2627" from-port="2" to-layer="2629" to-port="0" />
		<edge from-layer="2628" from-port="0" to-layer="2629" to-port="1" />
		<edge from-layer="2629" from-port="2" to-layer="2630" to-port="0" />
		<edge from-layer="2630" from-port="1" to-layer="2632" to-port="0" />
		<edge from-layer="2631" from-port="0" to-layer="2632" to-port="1" />
		<edge from-layer="2632" from-port="2" to-layer="2634" to-port="0" />
		<edge from-layer="2633" from-port="0" to-layer="2634" to-port="1" />
		<edge from-layer="2634" from-port="2" to-layer="2636" to-port="0" />
		<edge from-layer="2635" from-port="0" to-layer="2636" to-port="1" />
		<edge from-layer="2636" from-port="2" to-layer="2637" to-port="0" />
		<edge from-layer="2637" from-port="1" to-layer="2639" to-port="0" />
		<edge from-layer="2638" from-port="0" to-layer="2639" to-port="1" />
		<edge from-layer="2639" from-port="2" to-layer="2641" to-port="0" />
		<edge from-layer="2640" from-port="0" to-layer="2641" to-port="1" />
		<edge from-layer="2641" from-port="2" to-layer="2643" to-port="0" />
		<edge from-layer="2642" from-port="0" to-layer="2643" to-port="1" />
		<edge from-layer="2643" from-port="2" to-layer="2644" to-port="0" />
		<edge from-layer="2644" from-port="1" to-layer="2646" to-port="0" />
		<edge from-layer="2645" from-port="0" to-layer="2646" to-port="1" />
		<edge from-layer="2646" from-port="2" to-layer="2648" to-port="0" />
		<edge from-layer="2647" from-port="0" to-layer="2648" to-port="1" />
		<edge from-layer="2648" from-port="2" to-layer="2650" to-port="0" />
		<edge from-layer="2649" from-port="0" to-layer="2650" to-port="1" />
		<edge from-layer="2650" from-port="2" to-layer="2652" to-port="0" />
		<edge from-layer="2651" from-port="0" to-layer="2652" to-port="1" />
		<edge from-layer="2652" from-port="2" to-layer="2654" to-port="0" />
		<edge from-layer="2653" from-port="0" to-layer="2654" to-port="1" />
		<edge from-layer="2654" from-port="2" to-layer="2745" to-port="2" />
		<edge from-layer="2655" from-port="0" to-layer="2656" to-port="1" />
		<edge from-layer="2656" from-port="2" to-layer="2658" to-port="0" />
		<edge from-layer="2657" from-port="0" to-layer="2658" to-port="1" />
		<edge from-layer="2658" from-port="2" to-layer="2660" to-port="0" />
		<edge from-layer="2659" from-port="0" to-layer="2660" to-port="1" />
		<edge from-layer="2660" from-port="2" to-layer="2661" to-port="0" />
		<edge from-layer="2661" from-port="1" to-layer="2663" to-port="0" />
		<edge from-layer="2662" from-port="0" to-layer="2663" to-port="1" />
		<edge from-layer="2663" from-port="2" to-layer="2665" to-port="0" />
		<edge from-layer="2664" from-port="0" to-layer="2665" to-port="1" />
		<edge from-layer="2665" from-port="2" to-layer="2667" to-port="0" />
		<edge from-layer="2666" from-port="0" to-layer="2667" to-port="1" />
		<edge from-layer="2667" from-port="2" to-layer="2668" to-port="0" />
		<edge from-layer="2668" from-port="1" to-layer="2670" to-port="0" />
		<edge from-layer="2669" from-port="0" to-layer="2670" to-port="1" />
		<edge from-layer="2670" from-port="2" to-layer="2672" to-port="0" />
		<edge from-layer="2671" from-port="0" to-layer="2672" to-port="1" />
		<edge from-layer="2672" from-port="2" to-layer="2674" to-port="0" />
		<edge from-layer="2673" from-port="0" to-layer="2674" to-port="1" />
		<edge from-layer="2674" from-port="2" to-layer="2675" to-port="0" />
		<edge from-layer="2675" from-port="1" to-layer="2677" to-port="0" />
		<edge from-layer="2676" from-port="0" to-layer="2677" to-port="1" />
		<edge from-layer="2677" from-port="2" to-layer="2679" to-port="0" />
		<edge from-layer="2678" from-port="0" to-layer="2679" to-port="1" />
		<edge from-layer="2679" from-port="2" to-layer="2681" to-port="0" />
		<edge from-layer="2680" from-port="0" to-layer="2681" to-port="1" />
		<edge from-layer="2681" from-port="2" to-layer="2682" to-port="0" />
		<edge from-layer="2682" from-port="1" to-layer="2684" to-port="0" />
		<edge from-layer="2683" from-port="0" to-layer="2684" to-port="1" />
		<edge from-layer="2684" from-port="2" to-layer="2686" to-port="0" />
		<edge from-layer="2685" from-port="0" to-layer="2686" to-port="1" />
		<edge from-layer="2686" from-port="2" to-layer="2688" to-port="0" />
		<edge from-layer="2687" from-port="0" to-layer="2688" to-port="1" />
		<edge from-layer="2688" from-port="2" to-layer="2689" to-port="0" />
		<edge from-layer="2689" from-port="1" to-layer="2691" to-port="0" />
		<edge from-layer="2690" from-port="0" to-layer="2691" to-port="1" />
		<edge from-layer="2691" from-port="2" to-layer="2693" to-port="0" />
		<edge from-layer="2692" from-port="0" to-layer="2693" to-port="1" />
		<edge from-layer="2693" from-port="2" to-layer="2695" to-port="0" />
		<edge from-layer="2694" from-port="0" to-layer="2695" to-port="1" />
		<edge from-layer="2695" from-port="2" to-layer="2697" to-port="0" />
		<edge from-layer="2696" from-port="0" to-layer="2697" to-port="1" />
		<edge from-layer="2697" from-port="2" to-layer="2699" to-port="0" />
		<edge from-layer="2698" from-port="0" to-layer="2699" to-port="1" />
		<edge from-layer="2699" from-port="2" to-layer="2745" to-port="3" />
		<edge from-layer="2700" from-port="0" to-layer="2701" to-port="1" />
		<edge from-layer="2701" from-port="2" to-layer="2703" to-port="0" />
		<edge from-layer="2702" from-port="0" to-layer="2703" to-port="1" />
		<edge from-layer="2703" from-port="2" to-layer="2705" to-port="0" />
		<edge from-layer="2704" from-port="0" to-layer="2705" to-port="1" />
		<edge from-layer="2705" from-port="2" to-layer="2706" to-port="0" />
		<edge from-layer="2706" from-port="1" to-layer="2708" to-port="0" />
		<edge from-layer="2707" from-port="0" to-layer="2708" to-port="1" />
		<edge from-layer="2708" from-port="2" to-layer="2710" to-port="0" />
		<edge from-layer="2709" from-port="0" to-layer="2710" to-port="1" />
		<edge from-layer="2710" from-port="2" to-layer="2712" to-port="0" />
		<edge from-layer="2711" from-port="0" to-layer="2712" to-port="1" />
		<edge from-layer="2712" from-port="2" to-layer="2713" to-port="0" />
		<edge from-layer="2713" from-port="1" to-layer="2715" to-port="0" />
		<edge from-layer="2714" from-port="0" to-layer="2715" to-port="1" />
		<edge from-layer="2715" from-port="2" to-layer="2717" to-port="0" />
		<edge from-layer="2716" from-port="0" to-layer="2717" to-port="1" />
		<edge from-layer="2717" from-port="2" to-layer="2719" to-port="0" />
		<edge from-layer="2718" from-port="0" to-layer="2719" to-port="1" />
		<edge from-layer="2719" from-port="2" to-layer="2720" to-port="0" />
		<edge from-layer="2720" from-port="1" to-layer="2722" to-port="0" />
		<edge from-layer="2721" from-port="0" to-layer="2722" to-port="1" />
		<edge from-layer="2722" from-port="2" to-layer="2724" to-port="0" />
		<edge from-layer="2723" from-port="0" to-layer="2724" to-port="1" />
		<edge from-layer="2724" from-port="2" to-layer="2726" to-port="0" />
		<edge from-layer="2725" from-port="0" to-layer="2726" to-port="1" />
		<edge from-layer="2726" from-port="2" to-layer="2727" to-port="0" />
		<edge from-layer="2727" from-port="1" to-layer="2729" to-port="0" />
		<edge from-layer="2728" from-port="0" to-layer="2729" to-port="1" />
		<edge from-layer="2729" from-port="2" to-layer="2731" to-port="0" />
		<edge from-layer="2730" from-port="0" to-layer="2731" to-port="1" />
		<edge from-layer="2731" from-port="2" to-layer="2733" to-port="0" />
		<edge from-layer="2732" from-port="0" to-layer="2733" to-port="1" />
		<edge from-layer="2733" from-port="2" to-layer="2734" to-port="0" />
		<edge from-layer="2734" from-port="1" to-layer="2736" to-port="0" />
		<edge from-layer="2735" from-port="0" to-layer="2736" to-port="1" />
		<edge from-layer="2736" from-port="2" to-layer="2738" to-port="0" />
		<edge from-layer="2737" from-port="0" to-layer="2738" to-port="1" />
		<edge from-layer="2738" from-port="2" to-layer="2740" to-port="0" />
		<edge from-layer="2739" from-port="0" to-layer="2740" to-port="1" />
		<edge from-layer="2740" from-port="2" to-layer="2742" to-port="0" />
		<edge from-layer="2741" from-port="0" to-layer="2742" to-port="1" />
		<edge from-layer="2742" from-port="2" to-layer="2744" to-port="0" />
		<edge from-layer="2743" from-port="0" to-layer="2744" to-port="1" />
		<edge from-layer="2744" from-port="2" to-layer="2745" to-port="4" />
		<edge from-layer="2745" from-port="5" to-layer="2746" to-port="0" />
		<edge from-layer="2746" from-port="1" to-layer="2748" to-port="0" />
		<edge from-layer="2747" from-port="0" to-layer="2748" to-port="1" />
		<edge from-layer="2748" from-port="2" to-layer="2811" to-port="1" />
		<edge from-layer="2749" from-port="1" to-layer="2753" to-port="0" />
		<edge from-layer="2750" from-port="0" to-layer="2753" to-port="1" />
		<edge from-layer="2751" from-port="0" to-layer="2753" to-port="2" />
		<edge from-layer="2752" from-port="0" to-layer="2753" to-port="3" />
		<edge from-layer="2753" from-port="4" to-layer="2759" to-port="0" />
		<edge from-layer="2754" from-port="1" to-layer="2758" to-port="0" />
		<edge from-layer="2754" from-port="1" to-layer="2794" to-port="0" />
		<edge from-layer="2754" from-port="1" to-layer="2770" to-port="0" />
		<edge from-layer="2754" from-port="1" to-layer="2782" to-port="0" />
		<edge from-layer="2754" from-port="1" to-layer="2806" to-port="0" />
		<edge from-layer="2755" from-port="0" to-layer="2758" to-port="1" />
		<edge from-layer="2756" from-port="0" to-layer="2758" to-port="2" />
		<edge from-layer="2757" from-port="0" to-layer="2758" to-port="3" />
		<edge from-layer="2758" from-port="4" to-layer="2759" to-port="1" />
		<edge from-layer="2759" from-port="2" to-layer="2761" to-port="0" />
		<edge from-layer="2760" from-port="0" to-layer="2761" to-port="1" />
		<edge from-layer="2761" from-port="2" to-layer="2810" to-port="0" />
		<edge from-layer="2762" from-port="1" to-layer="2766" to-port="0" />
		<edge from-layer="2763" from-port="0" to-layer="2766" to-port="1" />
		<edge from-layer="2764" from-port="0" to-layer="2766" to-port="2" />
		<edge from-layer="2765" from-port="0" to-layer="2766" to-port="3" />
		<edge from-layer="2766" from-port="4" to-layer="2771" to-port="0" />
		<edge from-layer="2767" from-port="0" to-layer="2770" to-port="1" />
		<edge from-layer="2768" from-port="0" to-layer="2770" to-port="2" />
		<edge from-layer="2769" from-port="0" to-layer="2770" to-port="3" />
		<edge from-layer="2770" from-port="4" to-layer="2771" to-port="1" />
		<edge from-layer="2771" from-port="2" to-layer="2773" to-port="0" />
		<edge from-layer="2772" from-port="0" to-layer="2773" to-port="1" />
		<edge from-layer="2773" from-port="2" to-layer="2810" to-port="1" />
		<edge from-layer="2774" from-port="1" to-layer="2778" to-port="0" />
		<edge from-layer="2775" from-port="0" to-layer="2778" to-port="1" />
		<edge from-layer="2776" from-port="0" to-layer="2778" to-port="2" />
		<edge from-layer="2777" from-port="0" to-layer="2778" to-port="3" />
		<edge from-layer="2778" from-port="4" to-layer="2783" to-port="0" />
		<edge from-layer="2779" from-port="0" to-layer="2782" to-port="1" />
		<edge from-layer="2780" from-port="0" to-layer="2782" to-port="2" />
		<edge from-layer="2781" from-port="0" to-layer="2782" to-port="3" />
		<edge from-layer="2782" from-port="4" to-layer="2783" to-port="1" />
		<edge from-layer="2783" from-port="2" to-layer="2785" to-port="0" />
		<edge from-layer="2784" from-port="0" to-layer="2785" to-port="1" />
		<edge from-layer="2785" from-port="2" to-layer="2810" to-port="2" />
		<edge from-layer="2786" from-port="1" to-layer="2790" to-port="0" />
		<edge from-layer="2787" from-port="0" to-layer="2790" to-port="1" />
		<edge from-layer="2788" from-port="0" to-layer="2790" to-port="2" />
		<edge from-layer="2789" from-port="0" to-layer="2790" to-port="3" />
		<edge from-layer="2790" from-port="4" to-layer="2795" to-port="0" />
		<edge from-layer="2791" from-port="0" to-layer="2794" to-port="1" />
		<edge from-layer="2792" from-port="0" to-layer="2794" to-port="2" />
		<edge from-layer="2793" from-port="0" to-layer="2794" to-port="3" />
		<edge from-layer="2794" from-port="4" to-layer="2795" to-port="1" />
		<edge from-layer="2795" from-port="2" to-layer="2797" to-port="0" />
		<edge from-layer="2796" from-port="0" to-layer="2797" to-port="1" />
		<edge from-layer="2797" from-port="2" to-layer="2810" to-port="3" />
		<edge from-layer="2798" from-port="1" to-layer="2802" to-port="0" />
		<edge from-layer="2799" from-port="0" to-layer="2802" to-port="1" />
		<edge from-layer="2800" from-port="0" to-layer="2802" to-port="2" />
		<edge from-layer="2801" from-port="0" to-layer="2802" to-port="3" />
		<edge from-layer="2802" from-port="4" to-layer="2807" to-port="0" />
		<edge from-layer="2803" from-port="0" to-layer="2806" to-port="1" />
		<edge from-layer="2804" from-port="0" to-layer="2806" to-port="2" />
		<edge from-layer="2805" from-port="0" to-layer="2806" to-port="3" />
		<edge from-layer="2806" from-port="4" to-layer="2807" to-port="1" />
		<edge from-layer="2807" from-port="2" to-layer="2809" to-port="0" />
		<edge from-layer="2808" from-port="0" to-layer="2809" to-port="1" />
		<edge from-layer="2809" from-port="2" to-layer="2810" to-port="4" />
		<edge from-layer="2810" from-port="5" to-layer="2811" to-port="2" />
		<edge from-layer="2811" from-port="3" to-layer="2812" to-port="0" />
	</edges>
	<rt_info>
		<MO_version value="2022.3.0-9052-9752fafe8eb-releases/2022/3" />
		<Runtime_version value="2022.3.0-9052-9752fafe8eb-releases/2022/3" />
		<conversion_parameters>
			<framework value="tf" />
			<input_model value="DIR/efficientdet-d7_frozen.pb" />
			<input_shape value="[1, 1536, 1536, 3]" />
			<model_name value="efficientdet-d7_frozen" />
			<transformations_config value="DIR/automl_efficientdet.json" />
		</conversion_parameters>
		<legacy_frontend value="True" />
	</rt_info>
</net>
